layer {
  name: "input-data"
  type: "Python"
  top: "data"
  top: "rois"
  top: "labels"
  top: "bbox_targets"
  top: "bbox_inside_weights"
  top: "bbox_outside_weights"
  python_param {
    module: "caffe.frcnn.roi_data_layer.layer"
    layer: "RoIDataLayer"
    param_str: "num_classes: 6"
  }
}
layer {
  name: "conv1_1/conv"
  type: "Convolution"
  bottom: "data"
  top: "conv1_1/conv"
  param {
    lr_mult: 0.10000000149
    decay_mult: 0.10000000149
  }
  convolution_param {
    num_output: 16
    bias_term: false
    weight_filler {
      type: "xavier"
    }
    pad_h: 3
    pad_w: 3
    kernel_h: 7
    kernel_w: 7
    stride_h: 2
    stride_w: 2
  }
}
layer {
  name: "conv1_1/bn"
  type: "BatchNorm"
  bottom: "conv1_1/conv"
  top: "conv1_1/conv"
  param {
    lr_mult: 0.0
  }
  param {
    lr_mult: 0.0
  }
  param {
    lr_mult: 0.0
  }
  batch_norm_param {
    use_global_stats: true
  }
}
layer {
  name: "conv1_1/neg"
  type: "Power"
  bottom: "conv1_1/conv"
  top: "conv1_1/neg"
  power_param {
    power: 1.0
    scale: -1.0
    shift: 0.0
  }
}
layer {
  name: "conv1_1/concat"
  type: "Concat"
  bottom: "conv1_1/conv"
  bottom: "conv1_1/neg"
  top: "conv1_1"
}
layer {
  name: "conv1_1/scale"
  type: "Scale"
  bottom: "conv1_1"
  top: "conv1_1"
  param {
    lr_mult: 0.10000000149
    decay_mult: 0.0
  }
  param {
    lr_mult: 0.10000000149
    decay_mult: 0.0
  }
  scale_param {
    bias_term: true
  }
}
layer {
  name: "conv1_1/relu"
  type: "ReLU"
  bottom: "conv1_1"
  top: "conv1_1"
}
layer {
  name: "pool1"
  type: "Pooling"
  bottom: "conv1_1"
  top: "pool1"
  pooling_param {
    pool: MAX
    kernel_size: 3
    stride: 2
    pad: 0
  }
}
layer {
  name: "conv2_1/1/conv"
  type: "Convolution"
  bottom: "pool1"
  top: "conv2_1/1"
  param {
    lr_mult: 0.10000000149
    decay_mult: 0.10000000149
  }
  param {
    lr_mult: 0.20000000298
    decay_mult: 0.0
  }
  convolution_param {
    num_output: 24
    weight_filler {
      type: "xavier"
    }
    bias_filler {
      type: "constant"
      value: 0.10000000149
    }
    pad_h: 0
    pad_w: 0
    kernel_h: 1
    kernel_w: 1
    stride_h: 1
    stride_w: 1
  }
}
layer {
  name: "conv2_1/2/bn"
  type: "BatchNorm"
  bottom: "conv2_1/1"
  top: "conv2_1/2/pre"
  param {
    lr_mult: 0.0
  }
  param {
    lr_mult: 0.0
  }
  param {
    lr_mult: 0.0
  }
  batch_norm_param {
    use_global_stats: true
  }
}
layer {
  name: "conv2_1/2/bn_scale"
  type: "Scale"
  bottom: "conv2_1/2/pre"
  top: "conv2_1/2/pre"
  param {
    lr_mult: 0.10000000149
    decay_mult: 0.0
  }
  param {
    lr_mult: 0.10000000149
    decay_mult: 0.0
  }
  scale_param {
    bias_term: true
  }
}
layer {
  name: "conv2_1/2/relu"
  type: "ReLU"
  bottom: "conv2_1/2/pre"
  top: "conv2_1/2/pre"
}
layer {
  name: "conv2_1/2/conv"
  type: "Convolution"
  bottom: "conv2_1/2/pre"
  top: "conv2_1/2"
  param {
    lr_mult: 0.10000000149
    decay_mult: 0.10000000149
  }
  param {
    lr_mult: 0.20000000298
    decay_mult: 0.0
  }
  convolution_param {
    num_output: 24
    weight_filler {
      type: "xavier"
    }
    bias_filler {
      type: "constant"
      value: 0.10000000149
    }
    pad_h: 1
    pad_w: 1
    kernel_h: 3
    kernel_w: 3
    stride_h: 1
    stride_w: 1
  }
}
layer {
  name: "conv2_1/3/bn"
  type: "BatchNorm"
  bottom: "conv2_1/2"
  top: "conv2_1/3/pre"
  param {
    lr_mult: 0.0
  }
  param {
    lr_mult: 0.0
  }
  param {
    lr_mult: 0.0
  }
  batch_norm_param {
    use_global_stats: true
  }
}
layer {
  name: "conv2_1/3/neg"
  type: "Power"
  bottom: "conv2_1/3/pre"
  top: "conv2_1/3/neg"
  power_param {
    power: 1.0
    scale: -1.0
    shift: 0.0
  }
}
layer {
  name: "conv2_1/3/concat"
  type: "Concat"
  bottom: "conv2_1/3/pre"
  bottom: "conv2_1/3/neg"
  top: "conv2_1/3/preAct"
}
layer {
  name: "conv2_1/3/scale"
  type: "Scale"
  bottom: "conv2_1/3/preAct"
  top: "conv2_1/3/preAct"
  param {
    lr_mult: 0.10000000149
    decay_mult: 0.0
  }
  param {
    lr_mult: 0.10000000149
    decay_mult: 0.0
  }
  scale_param {
    bias_term: true
  }
}
layer {
  name: "conv2_1/3/relu"
  type: "ReLU"
  bottom: "conv2_1/3/preAct"
  top: "conv2_1/3/preAct"
}
layer {
  name: "conv2_1/3/conv"
  type: "Convolution"
  bottom: "conv2_1/3/preAct"
  top: "conv2_1/3"
  param {
    lr_mult: 0.10000000149
    decay_mult: 0.10000000149
  }
  param {
    lr_mult: 0.20000000298
    decay_mult: 0.0
  }
  convolution_param {
    num_output: 64
    weight_filler {
      type: "xavier"
    }
    bias_filler {
      type: "constant"
      value: 0.10000000149
    }
    pad_h: 0
    pad_w: 0
    kernel_h: 1
    kernel_w: 1
    stride_h: 1
    stride_w: 1
  }
}
layer {
  name: "conv2_1/proj"
  type: "Convolution"
  bottom: "pool1"
  top: "conv2_1/proj"
  param {
    lr_mult: 0.10000000149
    decay_mult: 0.10000000149
  }
  param {
    lr_mult: 0.20000000298
    decay_mult: 0.0
  }
  convolution_param {
    num_output: 64
    weight_filler {
      type: "xavier"
    }
    bias_filler {
      type: "constant"
      value: 0.10000000149
    }
    pad_h: 0
    pad_w: 0
    kernel_h: 1
    kernel_w: 1
    stride_h: 1
    stride_w: 1
  }
}
layer {
  name: "conv2_1"
  type: "Eltwise"
  bottom: "conv2_1/3"
  bottom: "conv2_1/proj"
  top: "conv2_1"
  eltwise_param {
    operation: SUM
    coeff: 1.0
    coeff: 1.0
  }
}
layer {
  name: "conv2_2/1/bn"
  type: "BatchNorm"
  bottom: "conv2_1"
  top: "conv2_2/1/pre"
  param {
    lr_mult: 0.0
  }
  param {
    lr_mult: 0.0
  }
  param {
    lr_mult: 0.0
  }
  batch_norm_param {
    use_global_stats: true
  }
}
layer {
  name: "conv2_2/1/bn_scale"
  type: "Scale"
  bottom: "conv2_2/1/pre"
  top: "conv2_2/1/pre"
  param {
    lr_mult: 0.10000000149
    decay_mult: 0.0
  }
  param {
    lr_mult: 0.10000000149
    decay_mult: 0.0
  }
  scale_param {
    bias_term: true
  }
}
layer {
  name: "conv2_2/1/relu"
  type: "ReLU"
  bottom: "conv2_2/1/pre"
  top: "conv2_2/1/pre"
}
layer {
  name: "conv2_2/1/conv"
  type: "Convolution"
  bottom: "conv2_2/1/pre"
  top: "conv2_2/1"
  param {
    lr_mult: 0.10000000149
    decay_mult: 0.10000000149
  }
  param {
    lr_mult: 0.20000000298
    decay_mult: 0.0
  }
  convolution_param {
    num_output: 24
    weight_filler {
      type: "xavier"
    }
    bias_filler {
      type: "constant"
      value: 0.10000000149
    }
    pad_h: 0
    pad_w: 0
    kernel_h: 1
    kernel_w: 1
    stride_h: 1
    stride_w: 1
  }
}
layer {
  name: "conv2_2/2/bn"
  type: "BatchNorm"
  bottom: "conv2_2/1"
  top: "conv2_2/2/pre"
  param {
    lr_mult: 0.0
  }
  param {
    lr_mult: 0.0
  }
  param {
    lr_mult: 0.0
  }
  batch_norm_param {
    use_global_stats: true
  }
}
layer {
  name: "conv2_2/2/bn_scale"
  type: "Scale"
  bottom: "conv2_2/2/pre"
  top: "conv2_2/2/pre"
  param {
    lr_mult: 0.10000000149
    decay_mult: 0.0
  }
  param {
    lr_mult: 0.10000000149
    decay_mult: 0.0
  }
  scale_param {
    bias_term: true
  }
}
layer {
  name: "conv2_2/2/relu"
  type: "ReLU"
  bottom: "conv2_2/2/pre"
  top: "conv2_2/2/pre"
}
layer {
  name: "conv2_2/2/conv"
  type: "Convolution"
  bottom: "conv2_2/2/pre"
  top: "conv2_2/2"
  param {
    lr_mult: 0.10000000149
    decay_mult: 0.10000000149
  }
  param {
    lr_mult: 0.20000000298
    decay_mult: 0.0
  }
  convolution_param {
    num_output: 24
    weight_filler {
      type: "xavier"
    }
    bias_filler {
      type: "constant"
      value: 0.10000000149
    }
    pad_h: 1
    pad_w: 1
    kernel_h: 3
    kernel_w: 3
    stride_h: 1
    stride_w: 1
  }
}
layer {
  name: "conv2_2/3/bn"
  type: "BatchNorm"
  bottom: "conv2_2/2"
  top: "conv2_2/3/pre"
  param {
    lr_mult: 0.0
  }
  param {
    lr_mult: 0.0
  }
  param {
    lr_mult: 0.0
  }
  batch_norm_param {
    use_global_stats: true
  }
}
layer {
  name: "conv2_2/3/neg"
  type: "Power"
  bottom: "conv2_2/3/pre"
  top: "conv2_2/3/neg"
  power_param {
    power: 1.0
    scale: -1.0
    shift: 0.0
  }
}
layer {
  name: "conv2_2/3/concat"
  type: "Concat"
  bottom: "conv2_2/3/pre"
  bottom: "conv2_2/3/neg"
  top: "conv2_2/3/preAct"
}
layer {
  name: "conv2_2/3/scale"
  type: "Scale"
  bottom: "conv2_2/3/preAct"
  top: "conv2_2/3/preAct"
  param {
    lr_mult: 0.10000000149
    decay_mult: 0.0
  }
  param {
    lr_mult: 0.10000000149
    decay_mult: 0.0
  }
  scale_param {
    bias_term: true
  }
}
layer {
  name: "conv2_2/3/relu"
  type: "ReLU"
  bottom: "conv2_2/3/preAct"
  top: "conv2_2/3/preAct"
}
layer {
  name: "conv2_2/3/conv"
  type: "Convolution"
  bottom: "conv2_2/3/preAct"
  top: "conv2_2/3"
  param {
    lr_mult: 0.10000000149
    decay_mult: 0.10000000149
  }
  param {
    lr_mult: 0.20000000298
    decay_mult: 0.0
  }
  convolution_param {
    num_output: 64
    weight_filler {
      type: "xavier"
    }
    bias_filler {
      type: "constant"
      value: 0.10000000149
    }
    pad_h: 0
    pad_w: 0
    kernel_h: 1
    kernel_w: 1
    stride_h: 1
    stride_w: 1
  }
}
layer {
  name: "conv2_2/input"
  type: "Power"
  bottom: "conv2_1"
  top: "conv2_2/input"
  power_param {
    power: 1.0
    scale: 1.0
    shift: 0.0
  }
}
layer {
  name: "conv2_2"
  type: "Eltwise"
  bottom: "conv2_2/3"
  bottom: "conv2_2/input"
  top: "conv2_2"
  eltwise_param {
    operation: SUM
    coeff: 1.0
    coeff: 1.0
  }
}
layer {
  name: "conv2_3/1/bn"
  type: "BatchNorm"
  bottom: "conv2_2"
  top: "conv2_3/1/pre"
  param {
    lr_mult: 0.0
  }
  param {
    lr_mult: 0.0
  }
  param {
    lr_mult: 0.0
  }
  batch_norm_param {
    use_global_stats: true
  }
}
layer {
  name: "conv2_3/1/bn_scale"
  type: "Scale"
  bottom: "conv2_3/1/pre"
  top: "conv2_3/1/pre"
  param {
    lr_mult: 0.10000000149
    decay_mult: 0.0
  }
  param {
    lr_mult: 0.10000000149
    decay_mult: 0.0
  }
  scale_param {
    bias_term: true
  }
}
layer {
  name: "conv2_3/1/relu"
  type: "ReLU"
  bottom: "conv2_3/1/pre"
  top: "conv2_3/1/pre"
}
layer {
  name: "conv2_3/1/conv"
  type: "Convolution"
  bottom: "conv2_3/1/pre"
  top: "conv2_3/1"
  param {
    lr_mult: 0.10000000149
    decay_mult: 0.10000000149
  }
  param {
    lr_mult: 0.20000000298
    decay_mult: 0.0
  }
  convolution_param {
    num_output: 24
    weight_filler {
      type: "xavier"
    }
    bias_filler {
      type: "constant"
      value: 0.10000000149
    }
    pad_h: 0
    pad_w: 0
    kernel_h: 1
    kernel_w: 1
    stride_h: 1
    stride_w: 1
  }
}
layer {
  name: "conv2_3/2/bn"
  type: "BatchNorm"
  bottom: "conv2_3/1"
  top: "conv2_3/2/pre"
  param {
    lr_mult: 0.0
  }
  param {
    lr_mult: 0.0
  }
  param {
    lr_mult: 0.0
  }
  batch_norm_param {
    use_global_stats: true
  }
}
layer {
  name: "conv2_3/2/bn_scale"
  type: "Scale"
  bottom: "conv2_3/2/pre"
  top: "conv2_3/2/pre"
  param {
    lr_mult: 0.10000000149
    decay_mult: 0.0
  }
  param {
    lr_mult: 0.10000000149
    decay_mult: 0.0
  }
  scale_param {
    bias_term: true
  }
}
layer {
  name: "conv2_3/2/relu"
  type: "ReLU"
  bottom: "conv2_3/2/pre"
  top: "conv2_3/2/pre"
}
layer {
  name: "conv2_3/2/conv"
  type: "Convolution"
  bottom: "conv2_3/2/pre"
  top: "conv2_3/2"
  param {
    lr_mult: 0.10000000149
    decay_mult: 0.10000000149
  }
  param {
    lr_mult: 0.20000000298
    decay_mult: 0.0
  }
  convolution_param {
    num_output: 24
    weight_filler {
      type: "xavier"
    }
    bias_filler {
      type: "constant"
      value: 0.10000000149
    }
    pad_h: 1
    pad_w: 1
    kernel_h: 3
    kernel_w: 3
    stride_h: 1
    stride_w: 1
  }
}
layer {
  name: "conv2_3/3/bn"
  type: "BatchNorm"
  bottom: "conv2_3/2"
  top: "conv2_3/3/pre"
  param {
    lr_mult: 0.0
  }
  param {
    lr_mult: 0.0
  }
  param {
    lr_mult: 0.0
  }
  batch_norm_param {
    use_global_stats: true
  }
}
layer {
  name: "conv2_3/3/neg"
  type: "Power"
  bottom: "conv2_3/3/pre"
  top: "conv2_3/3/neg"
  power_param {
    power: 1.0
    scale: -1.0
    shift: 0.0
  }
}
layer {
  name: "conv2_3/3/concat"
  type: "Concat"
  bottom: "conv2_3/3/pre"
  bottom: "conv2_3/3/neg"
  top: "conv2_3/3/preAct"
}
layer {
  name: "conv2_3/3/scale"
  type: "Scale"
  bottom: "conv2_3/3/preAct"
  top: "conv2_3/3/preAct"
  param {
    lr_mult: 0.10000000149
    decay_mult: 0.0
  }
  param {
    lr_mult: 0.10000000149
    decay_mult: 0.0
  }
  scale_param {
    bias_term: true
  }
}
layer {
  name: "conv2_3/3/relu"
  type: "ReLU"
  bottom: "conv2_3/3/preAct"
  top: "conv2_3/3/preAct"
}
layer {
  name: "conv2_3/3/conv"
  type: "Convolution"
  bottom: "conv2_3/3/preAct"
  top: "conv2_3/3"
  param {
    lr_mult: 0.10000000149
    decay_mult: 0.10000000149
  }
  param {
    lr_mult: 0.20000000298
    decay_mult: 0.0
  }
  convolution_param {
    num_output: 64
    weight_filler {
      type: "xavier"
    }
    bias_filler {
      type: "constant"
      value: 0.10000000149
    }
    pad_h: 0
    pad_w: 0
    kernel_h: 1
    kernel_w: 1
    stride_h: 1
    stride_w: 1
  }
}
layer {
  name: "conv2_3/input"
  type: "Power"
  bottom: "conv2_2"
  top: "conv2_3/input"
  power_param {
    power: 1.0
    scale: 1.0
    shift: 0.0
  }
}
layer {
  name: "conv2_3"
  type: "Eltwise"
  bottom: "conv2_3/3"
  bottom: "conv2_3/input"
  top: "conv2_3"
  eltwise_param {
    operation: SUM
    coeff: 1.0
    coeff: 1.0
  }
}
layer {
  name: "conv3_1/1/bn"
  type: "BatchNorm"
  bottom: "conv2_3"
  top: "conv3_1/1/pre"
  param {
    lr_mult: 0.0
  }
  param {
    lr_mult: 0.0
  }
  param {
    lr_mult: 0.0
  }
  batch_norm_param {
    use_global_stats: true
  }
}
layer {
  name: "conv3_1/1/bn_scale"
  type: "Scale"
  bottom: "conv3_1/1/pre"
  top: "conv3_1/1/pre"
  param {
    lr_mult: 0.10000000149
    decay_mult: 0.0
  }
  param {
    lr_mult: 0.10000000149
    decay_mult: 0.0
  }
  scale_param {
    bias_term: true
  }
}
layer {
  name: "conv3_1/1/relu"
  type: "ReLU"
  bottom: "conv3_1/1/pre"
  top: "conv3_1/1/pre"
}
layer {
  name: "conv3_1/1/conv"
  type: "Convolution"
  bottom: "conv3_1/1/pre"
  top: "conv3_1/1"
  param {
    lr_mult: 0.10000000149
    decay_mult: 0.10000000149
  }
  param {
    lr_mult: 0.20000000298
    decay_mult: 0.0
  }
  convolution_param {
    num_output: 48
    weight_filler {
      type: "xavier"
    }
    bias_filler {
      type: "constant"
      value: 0.10000000149
    }
    pad_h: 0
    pad_w: 0
    kernel_h: 1
    kernel_w: 1
    stride_h: 2
    stride_w: 2
  }
}
layer {
  name: "conv3_1/2/bn"
  type: "BatchNorm"
  bottom: "conv3_1/1"
  top: "conv3_1/2/pre"
  param {
    lr_mult: 0.0
  }
  param {
    lr_mult: 0.0
  }
  param {
    lr_mult: 0.0
  }
  batch_norm_param {
    use_global_stats: true
  }
}
layer {
  name: "conv3_1/2/bn_scale"
  type: "Scale"
  bottom: "conv3_1/2/pre"
  top: "conv3_1/2/pre"
  param {
    lr_mult: 0.10000000149
    decay_mult: 0.0
  }
  param {
    lr_mult: 0.10000000149
    decay_mult: 0.0
  }
  scale_param {
    bias_term: true
  }
}
layer {
  name: "conv3_1/2/relu"
  type: "ReLU"
  bottom: "conv3_1/2/pre"
  top: "conv3_1/2/pre"
}
layer {
  name: "conv3_1/2/conv"
  type: "Convolution"
  bottom: "conv3_1/2/pre"
  top: "conv3_1/2"
  param {
    lr_mult: 0.10000000149
    decay_mult: 0.10000000149
  }
  param {
    lr_mult: 0.20000000298
    decay_mult: 0.0
  }
  convolution_param {
    num_output: 48
    weight_filler {
      type: "xavier"
    }
    bias_filler {
      type: "constant"
      value: 0.10000000149
    }
    pad_h: 1
    pad_w: 1
    kernel_h: 3
    kernel_w: 3
    stride_h: 1
    stride_w: 1
  }
}
layer {
  name: "conv3_1/3/bn"
  type: "BatchNorm"
  bottom: "conv3_1/2"
  top: "conv3_1/3/pre"
  param {
    lr_mult: 0.0
  }
  param {
    lr_mult: 0.0
  }
  param {
    lr_mult: 0.0
  }
  batch_norm_param {
    use_global_stats: true
  }
}
layer {
  name: "conv3_1/3/neg"
  type: "Power"
  bottom: "conv3_1/3/pre"
  top: "conv3_1/3/neg"
  power_param {
    power: 1.0
    scale: -1.0
    shift: 0.0
  }
}
layer {
  name: "conv3_1/3/concat"
  type: "Concat"
  bottom: "conv3_1/3/pre"
  bottom: "conv3_1/3/neg"
  top: "conv3_1/3/preAct"
}
layer {
  name: "conv3_1/3/scale"
  type: "Scale"
  bottom: "conv3_1/3/preAct"
  top: "conv3_1/3/preAct"
  param {
    lr_mult: 0.10000000149
    decay_mult: 0.0
  }
  param {
    lr_mult: 0.10000000149
    decay_mult: 0.0
  }
  scale_param {
    bias_term: true
  }
}
layer {
  name: "conv3_1/3/relu"
  type: "ReLU"
  bottom: "conv3_1/3/preAct"
  top: "conv3_1/3/preAct"
}
layer {
  name: "conv3_1/3/conv"
  type: "Convolution"
  bottom: "conv3_1/3/preAct"
  top: "conv3_1/3"
  param {
    lr_mult: 0.10000000149
    decay_mult: 0.10000000149
  }
  param {
    lr_mult: 0.20000000298
    decay_mult: 0.0
  }
  convolution_param {
    num_output: 128
    weight_filler {
      type: "xavier"
    }
    bias_filler {
      type: "constant"
      value: 0.10000000149
    }
    pad_h: 0
    pad_w: 0
    kernel_h: 1
    kernel_w: 1
    stride_h: 1
    stride_w: 1
  }
}
layer {
  name: "conv3_1/proj"
  type: "Convolution"
  bottom: "conv3_1/1/pre"
  top: "conv3_1/proj"
  param {
    lr_mult: 0.10000000149
    decay_mult: 0.10000000149
  }
  param {
    lr_mult: 0.20000000298
    decay_mult: 0.0
  }
  convolution_param {
    num_output: 128
    weight_filler {
      type: "xavier"
    }
    bias_filler {
      type: "constant"
      value: 0.10000000149
    }
    pad_h: 0
    pad_w: 0
    kernel_h: 1
    kernel_w: 1
    stride_h: 2
    stride_w: 2
  }
}
layer {
  name: "conv3_1"
  type: "Eltwise"
  bottom: "conv3_1/3"
  bottom: "conv3_1/proj"
  top: "conv3_1"
  eltwise_param {
    operation: SUM
    coeff: 1.0
    coeff: 1.0
  }
}
layer {
  name: "conv3_2/1/bn"
  type: "BatchNorm"
  bottom: "conv3_1"
  top: "conv3_2/1/pre"
  param {
    lr_mult: 0.0
  }
  param {
    lr_mult: 0.0
  }
  param {
    lr_mult: 0.0
  }
  batch_norm_param {
    use_global_stats: true
  }
}
layer {
  name: "conv3_2/1/bn_scale"
  type: "Scale"
  bottom: "conv3_2/1/pre"
  top: "conv3_2/1/pre"
  param {
    lr_mult: 0.10000000149
    decay_mult: 0.0
  }
  param {
    lr_mult: 0.10000000149
    decay_mult: 0.0
  }
  scale_param {
    bias_term: true
  }
}
layer {
  name: "conv3_2/1/relu"
  type: "ReLU"
  bottom: "conv3_2/1/pre"
  top: "conv3_2/1/pre"
}
layer {
  name: "conv3_2/1/conv"
  type: "Convolution"
  bottom: "conv3_2/1/pre"
  top: "conv3_2/1"
  param {
    lr_mult: 0.10000000149
    decay_mult: 0.10000000149
  }
  param {
    lr_mult: 0.20000000298
    decay_mult: 0.0
  }
  convolution_param {
    num_output: 48
    weight_filler {
      type: "xavier"
    }
    bias_filler {
      type: "constant"
      value: 0.10000000149
    }
    pad_h: 0
    pad_w: 0
    kernel_h: 1
    kernel_w: 1
    stride_h: 1
    stride_w: 1
  }
}
layer {
  name: "conv3_2/2/bn"
  type: "BatchNorm"
  bottom: "conv3_2/1"
  top: "conv3_2/2/pre"
  param {
    lr_mult: 0.0
  }
  param {
    lr_mult: 0.0
  }
  param {
    lr_mult: 0.0
  }
  batch_norm_param {
    use_global_stats: true
  }
}
layer {
  name: "conv3_2/2/bn_scale"
  type: "Scale"
  bottom: "conv3_2/2/pre"
  top: "conv3_2/2/pre"
  param {
    lr_mult: 0.10000000149
    decay_mult: 0.0
  }
  param {
    lr_mult: 0.10000000149
    decay_mult: 0.0
  }
  scale_param {
    bias_term: true
  }
}
layer {
  name: "conv3_2/2/relu"
  type: "ReLU"
  bottom: "conv3_2/2/pre"
  top: "conv3_2/2/pre"
}
layer {
  name: "conv3_2/2/conv"
  type: "Convolution"
  bottom: "conv3_2/2/pre"
  top: "conv3_2/2"
  param {
    lr_mult: 0.10000000149
    decay_mult: 0.10000000149
  }
  param {
    lr_mult: 0.20000000298
    decay_mult: 0.0
  }
  convolution_param {
    num_output: 48
    weight_filler {
      type: "xavier"
    }
    bias_filler {
      type: "constant"
      value: 0.10000000149
    }
    pad_h: 1
    pad_w: 1
    kernel_h: 3
    kernel_w: 3
    stride_h: 1
    stride_w: 1
  }
}
layer {
  name: "conv3_2/3/bn"
  type: "BatchNorm"
  bottom: "conv3_2/2"
  top: "conv3_2/3/pre"
  param {
    lr_mult: 0.0
  }
  param {
    lr_mult: 0.0
  }
  param {
    lr_mult: 0.0
  }
  batch_norm_param {
    use_global_stats: true
  }
}
layer {
  name: "conv3_2/3/neg"
  type: "Power"
  bottom: "conv3_2/3/pre"
  top: "conv3_2/3/neg"
  power_param {
    power: 1.0
    scale: -1.0
    shift: 0.0
  }
}
layer {
  name: "conv3_2/3/concat"
  type: "Concat"
  bottom: "conv3_2/3/pre"
  bottom: "conv3_2/3/neg"
  top: "conv3_2/3/preAct"
}
layer {
  name: "conv3_2/3/scale"
  type: "Scale"
  bottom: "conv3_2/3/preAct"
  top: "conv3_2/3/preAct"
  param {
    lr_mult: 0.10000000149
    decay_mult: 0.0
  }
  param {
    lr_mult: 0.10000000149
    decay_mult: 0.0
  }
  scale_param {
    bias_term: true
  }
}
layer {
  name: "conv3_2/3/relu"
  type: "ReLU"
  bottom: "conv3_2/3/preAct"
  top: "conv3_2/3/preAct"
}
layer {
  name: "conv3_2/3/conv"
  type: "Convolution"
  bottom: "conv3_2/3/preAct"
  top: "conv3_2/3"
  param {
    lr_mult: 0.10000000149
    decay_mult: 0.10000000149
  }
  param {
    lr_mult: 0.20000000298
    decay_mult: 0.0
  }
  convolution_param {
    num_output: 128
    weight_filler {
      type: "xavier"
    }
    bias_filler {
      type: "constant"
      value: 0.10000000149
    }
    pad_h: 0
    pad_w: 0
    kernel_h: 1
    kernel_w: 1
    stride_h: 1
    stride_w: 1
  }
}
layer {
  name: "conv3_2/input"
  type: "Power"
  bottom: "conv3_1"
  top: "conv3_2/input"
  power_param {
    power: 1.0
    scale: 1.0
    shift: 0.0
  }
}
layer {
  name: "conv3_2"
  type: "Eltwise"
  bottom: "conv3_2/3"
  bottom: "conv3_2/input"
  top: "conv3_2"
  eltwise_param {
    operation: SUM
    coeff: 1.0
    coeff: 1.0
  }
}
layer {
  name: "conv3_3/1/bn"
  type: "BatchNorm"
  bottom: "conv3_2"
  top: "conv3_3/1/pre"
  param {
    lr_mult: 0.0
  }
  param {
    lr_mult: 0.0
  }
  param {
    lr_mult: 0.0
  }
  batch_norm_param {
    use_global_stats: true
  }
}
layer {
  name: "conv3_3/1/bn_scale"
  type: "Scale"
  bottom: "conv3_3/1/pre"
  top: "conv3_3/1/pre"
  param {
    lr_mult: 0.10000000149
    decay_mult: 0.0
  }
  param {
    lr_mult: 0.10000000149
    decay_mult: 0.0
  }
  scale_param {
    bias_term: true
  }
}
layer {
  name: "conv3_3/1/relu"
  type: "ReLU"
  bottom: "conv3_3/1/pre"
  top: "conv3_3/1/pre"
}
layer {
  name: "conv3_3/1/conv"
  type: "Convolution"
  bottom: "conv3_3/1/pre"
  top: "conv3_3/1"
  param {
    lr_mult: 0.10000000149
    decay_mult: 0.10000000149
  }
  param {
    lr_mult: 0.20000000298
    decay_mult: 0.0
  }
  convolution_param {
    num_output: 48
    weight_filler {
      type: "xavier"
    }
    bias_filler {
      type: "constant"
      value: 0.10000000149
    }
    pad_h: 0
    pad_w: 0
    kernel_h: 1
    kernel_w: 1
    stride_h: 1
    stride_w: 1
  }
}
layer {
  name: "conv3_3/2/bn"
  type: "BatchNorm"
  bottom: "conv3_3/1"
  top: "conv3_3/2/pre"
  param {
    lr_mult: 0.0
  }
  param {
    lr_mult: 0.0
  }
  param {
    lr_mult: 0.0
  }
  batch_norm_param {
    use_global_stats: true
  }
}
layer {
  name: "conv3_3/2/bn_scale"
  type: "Scale"
  bottom: "conv3_3/2/pre"
  top: "conv3_3/2/pre"
  param {
    lr_mult: 0.10000000149
    decay_mult: 0.0
  }
  param {
    lr_mult: 0.10000000149
    decay_mult: 0.0
  }
  scale_param {
    bias_term: true
  }
}
layer {
  name: "conv3_3/2/relu"
  type: "ReLU"
  bottom: "conv3_3/2/pre"
  top: "conv3_3/2/pre"
}
layer {
  name: "conv3_3/2/conv"
  type: "Convolution"
  bottom: "conv3_3/2/pre"
  top: "conv3_3/2"
  param {
    lr_mult: 0.10000000149
    decay_mult: 0.10000000149
  }
  param {
    lr_mult: 0.20000000298
    decay_mult: 0.0
  }
  convolution_param {
    num_output: 48
    weight_filler {
      type: "xavier"
    }
    bias_filler {
      type: "constant"
      value: 0.10000000149
    }
    pad_h: 1
    pad_w: 1
    kernel_h: 3
    kernel_w: 3
    stride_h: 1
    stride_w: 1
  }
}
layer {
  name: "conv3_3/3/bn"
  type: "BatchNorm"
  bottom: "conv3_3/2"
  top: "conv3_3/3/pre"
  param {
    lr_mult: 0.0
  }
  param {
    lr_mult: 0.0
  }
  param {
    lr_mult: 0.0
  }
  batch_norm_param {
    use_global_stats: true
  }
}
layer {
  name: "conv3_3/3/neg"
  type: "Power"
  bottom: "conv3_3/3/pre"
  top: "conv3_3/3/neg"
  power_param {
    power: 1.0
    scale: -1.0
    shift: 0.0
  }
}
layer {
  name: "conv3_3/3/concat"
  type: "Concat"
  bottom: "conv3_3/3/pre"
  bottom: "conv3_3/3/neg"
  top: "conv3_3/3/preAct"
}
layer {
  name: "conv3_3/3/scale"
  type: "Scale"
  bottom: "conv3_3/3/preAct"
  top: "conv3_3/3/preAct"
  param {
    lr_mult: 0.10000000149
    decay_mult: 0.0
  }
  param {
    lr_mult: 0.10000000149
    decay_mult: 0.0
  }
  scale_param {
    bias_term: true
  }
}
layer {
  name: "conv3_3/3/relu"
  type: "ReLU"
  bottom: "conv3_3/3/preAct"
  top: "conv3_3/3/preAct"
}
layer {
  name: "conv3_3/3/conv"
  type: "Convolution"
  bottom: "conv3_3/3/preAct"
  top: "conv3_3/3"
  param {
    lr_mult: 0.10000000149
    decay_mult: 0.10000000149
  }
  param {
    lr_mult: 0.20000000298
    decay_mult: 0.0
  }
  convolution_param {
    num_output: 128
    weight_filler {
      type: "xavier"
    }
    bias_filler {
      type: "constant"
      value: 0.10000000149
    }
    pad_h: 0
    pad_w: 0
    kernel_h: 1
    kernel_w: 1
    stride_h: 1
    stride_w: 1
  }
}
layer {
  name: "conv3_3/input"
  type: "Power"
  bottom: "conv3_2"
  top: "conv3_3/input"
  power_param {
    power: 1.0
    scale: 1.0
    shift: 0.0
  }
}
layer {
  name: "conv3_3"
  type: "Eltwise"
  bottom: "conv3_3/3"
  bottom: "conv3_3/input"
  top: "conv3_3"
  eltwise_param {
    operation: SUM
    coeff: 1.0
    coeff: 1.0
  }
}
layer {
  name: "conv3_4/1/bn"
  type: "BatchNorm"
  bottom: "conv3_3"
  top: "conv3_4/1/pre"
  param {
    lr_mult: 0.0
  }
  param {
    lr_mult: 0.0
  }
  param {
    lr_mult: 0.0
  }
  batch_norm_param {
    use_global_stats: true
  }
}
layer {
  name: "conv3_4/1/bn_scale"
  type: "Scale"
  bottom: "conv3_4/1/pre"
  top: "conv3_4/1/pre"
  param {
    lr_mult: 0.10000000149
    decay_mult: 0.0
  }
  param {
    lr_mult: 0.10000000149
    decay_mult: 0.0
  }
  scale_param {
    bias_term: true
  }
}
layer {
  name: "conv3_4/1/relu"
  type: "ReLU"
  bottom: "conv3_4/1/pre"
  top: "conv3_4/1/pre"
}
layer {
  name: "conv3_4/1/conv"
  type: "Convolution"
  bottom: "conv3_4/1/pre"
  top: "conv3_4/1"
  param {
    lr_mult: 0.10000000149
    decay_mult: 0.10000000149
  }
  param {
    lr_mult: 0.20000000298
    decay_mult: 0.0
  }
  convolution_param {
    num_output: 48
    weight_filler {
      type: "xavier"
    }
    bias_filler {
      type: "constant"
      value: 0.10000000149
    }
    pad_h: 0
    pad_w: 0
    kernel_h: 1
    kernel_w: 1
    stride_h: 1
    stride_w: 1
  }
}
layer {
  name: "conv3_4/2/bn"
  type: "BatchNorm"
  bottom: "conv3_4/1"
  top: "conv3_4/2/pre"
  param {
    lr_mult: 0.0
  }
  param {
    lr_mult: 0.0
  }
  param {
    lr_mult: 0.0
  }
  batch_norm_param {
    use_global_stats: true
  }
}
layer {
  name: "conv3_4/2/bn_scale"
  type: "Scale"
  bottom: "conv3_4/2/pre"
  top: "conv3_4/2/pre"
  param {
    lr_mult: 0.10000000149
    decay_mult: 0.0
  }
  param {
    lr_mult: 0.10000000149
    decay_mult: 0.0
  }
  scale_param {
    bias_term: true
  }
}
layer {
  name: "conv3_4/2/relu"
  type: "ReLU"
  bottom: "conv3_4/2/pre"
  top: "conv3_4/2/pre"
}
layer {
  name: "conv3_4/2/conv"
  type: "Convolution"
  bottom: "conv3_4/2/pre"
  top: "conv3_4/2"
  param {
    lr_mult: 0.10000000149
    decay_mult: 0.10000000149
  }
  param {
    lr_mult: 0.20000000298
    decay_mult: 0.0
  }
  convolution_param {
    num_output: 48
    weight_filler {
      type: "xavier"
    }
    bias_filler {
      type: "constant"
      value: 0.10000000149
    }
    pad_h: 1
    pad_w: 1
    kernel_h: 3
    kernel_w: 3
    stride_h: 1
    stride_w: 1
  }
}
layer {
  name: "conv3_4/3/bn"
  type: "BatchNorm"
  bottom: "conv3_4/2"
  top: "conv3_4/3/pre"
  param {
    lr_mult: 0.0
  }
  param {
    lr_mult: 0.0
  }
  param {
    lr_mult: 0.0
  }
  batch_norm_param {
    use_global_stats: true
  }
}
layer {
  name: "conv3_4/3/neg"
  type: "Power"
  bottom: "conv3_4/3/pre"
  top: "conv3_4/3/neg"
  power_param {
    power: 1.0
    scale: -1.0
    shift: 0.0
  }
}
layer {
  name: "conv3_4/3/concat"
  type: "Concat"
  bottom: "conv3_4/3/pre"
  bottom: "conv3_4/3/neg"
  top: "conv3_4/3/preAct"
}
layer {
  name: "conv3_4/3/scale"
  type: "Scale"
  bottom: "conv3_4/3/preAct"
  top: "conv3_4/3/preAct"
  param {
    lr_mult: 0.10000000149
    decay_mult: 0.0
  }
  param {
    lr_mult: 0.10000000149
    decay_mult: 0.0
  }
  scale_param {
    bias_term: true
  }
}
layer {
  name: "conv3_4/3/relu"
  type: "ReLU"
  bottom: "conv3_4/3/preAct"
  top: "conv3_4/3/preAct"
}
layer {
  name: "conv3_4/3/conv"
  type: "Convolution"
  bottom: "conv3_4/3/preAct"
  top: "conv3_4/3"
  param {
    lr_mult: 0.10000000149
    decay_mult: 0.10000000149
  }
  param {
    lr_mult: 0.20000000298
    decay_mult: 0.0
  }
  convolution_param {
    num_output: 128
    weight_filler {
      type: "xavier"
    }
    bias_filler {
      type: "constant"
      value: 0.10000000149
    }
    pad_h: 0
    pad_w: 0
    kernel_h: 1
    kernel_w: 1
    stride_h: 1
    stride_w: 1
  }
}
layer {
  name: "conv3_4/input"
  type: "Power"
  bottom: "conv3_3"
  top: "conv3_4/input"
  power_param {
    power: 1.0
    scale: 1.0
    shift: 0.0
  }
}
layer {
  name: "conv3_4"
  type: "Eltwise"
  bottom: "conv3_4/3"
  bottom: "conv3_4/input"
  top: "conv3_4"
  eltwise_param {
    operation: SUM
    coeff: 1.0
    coeff: 1.0
  }
}
layer {
  name: "conv4_1/incep/bn"
  type: "BatchNorm"
  bottom: "conv3_4"
  top: "conv4_1/incep/pre"
  param {
    lr_mult: 0.0
  }
  param {
    lr_mult: 0.0
  }
  param {
    lr_mult: 0.0
  }
  batch_norm_param {
    use_global_stats: true
  }
}
layer {
  name: "conv4_1/incep/bn_scale"
  type: "Scale"
  bottom: "conv4_1/incep/pre"
  top: "conv4_1/incep/pre"
  param {
    lr_mult: 0.10000000149
    decay_mult: 0.0
  }
  param {
    lr_mult: 0.10000000149
    decay_mult: 0.0
  }
  scale_param {
    bias_term: true
  }
}
layer {
  name: "conv4_1/incep/relu"
  type: "ReLU"
  bottom: "conv4_1/incep/pre"
  top: "conv4_1/incep/pre"
}
layer {
  name: "conv4_1/incep/0/conv"
  type: "Convolution"
  bottom: "conv4_1/incep/pre"
  top: "conv4_1/incep/0"
  param {
    lr_mult: 0.10000000149
    decay_mult: 0.10000000149
  }
  convolution_param {
    num_output: 64
    bias_term: false
    weight_filler {
      type: "xavier"
    }
    pad_h: 0
    pad_w: 0
    kernel_h: 1
    kernel_w: 1
    stride_h: 2
    stride_w: 2
  }
}
layer {
  name: "conv4_1/incep/0/bn"
  type: "BatchNorm"
  bottom: "conv4_1/incep/0"
  top: "conv4_1/incep/0"
  param {
    lr_mult: 0.0
  }
  param {
    lr_mult: 0.0
  }
  param {
    lr_mult: 0.0
  }
  batch_norm_param {
    use_global_stats: true
  }
}
layer {
  name: "conv4_1/incep/0/bn_scale"
  type: "Scale"
  bottom: "conv4_1/incep/0"
  top: "conv4_1/incep/0"
  param {
    lr_mult: 0.10000000149
    decay_mult: 0.0
  }
  param {
    lr_mult: 0.10000000149
    decay_mult: 0.0
  }
  scale_param {
    bias_term: true
  }
}
layer {
  name: "conv4_1/incep/0/relu"
  type: "ReLU"
  bottom: "conv4_1/incep/0"
  top: "conv4_1/incep/0"
}
layer {
  name: "conv4_1/incep/1_reduce/conv"
  type: "Convolution"
  bottom: "conv4_1/incep/pre"
  top: "conv4_1/incep/1_reduce"
  param {
    lr_mult: 0.10000000149
    decay_mult: 0.10000000149
  }
  convolution_param {
    num_output: 48
    bias_term: false
    weight_filler {
      type: "xavier"
    }
    pad_h: 0
    pad_w: 0
    kernel_h: 1
    kernel_w: 1
    stride_h: 2
    stride_w: 2
  }
}
layer {
  name: "conv4_1/incep/1_reduce/bn"
  type: "BatchNorm"
  bottom: "conv4_1/incep/1_reduce"
  top: "conv4_1/incep/1_reduce"
  param {
    lr_mult: 0.0
  }
  param {
    lr_mult: 0.0
  }
  param {
    lr_mult: 0.0
  }
  batch_norm_param {
    use_global_stats: true
  }
}
layer {
  name: "conv4_1/incep/1_reduce/bn_scale"
  type: "Scale"
  bottom: "conv4_1/incep/1_reduce"
  top: "conv4_1/incep/1_reduce"
  param {
    lr_mult: 0.10000000149
    decay_mult: 0.0
  }
  param {
    lr_mult: 0.10000000149
    decay_mult: 0.0
  }
  scale_param {
    bias_term: true
  }
}
layer {
  name: "conv4_1/incep/1_reduce/relu"
  type: "ReLU"
  bottom: "conv4_1/incep/1_reduce"
  top: "conv4_1/incep/1_reduce"
}
layer {
  name: "conv4_1/incep/1_0/conv"
  type: "Convolution"
  bottom: "conv4_1/incep/1_reduce"
  top: "conv4_1/incep/1_0"
  param {
    lr_mult: 0.10000000149
    decay_mult: 0.10000000149
  }
  convolution_param {
    num_output: 128
    bias_term: false
    weight_filler {
      type: "xavier"
    }
    pad_h: 1
    pad_w: 1
    kernel_h: 3
    kernel_w: 3
    stride_h: 1
    stride_w: 1
  }
}
layer {
  name: "conv4_1/incep/1_0/bn"
  type: "BatchNorm"
  bottom: "conv4_1/incep/1_0"
  top: "conv4_1/incep/1_0"
  param {
    lr_mult: 0.0
  }
  param {
    lr_mult: 0.0
  }
  param {
    lr_mult: 0.0
  }
  batch_norm_param {
    use_global_stats: true
  }
}
layer {
  name: "conv4_1/incep/1_0/bn_scale"
  type: "Scale"
  bottom: "conv4_1/incep/1_0"
  top: "conv4_1/incep/1_0"
  param {
    lr_mult: 0.10000000149
    decay_mult: 0.0
  }
  param {
    lr_mult: 0.10000000149
    decay_mult: 0.0
  }
  scale_param {
    bias_term: true
  }
}
layer {
  name: "conv4_1/incep/1_0/relu"
  type: "ReLU"
  bottom: "conv4_1/incep/1_0"
  top: "conv4_1/incep/1_0"
}
layer {
  name: "conv4_1/incep/2_reduce/conv"
  type: "Convolution"
  bottom: "conv4_1/incep/pre"
  top: "conv4_1/incep/2_reduce"
  param {
    lr_mult: 0.10000000149
    decay_mult: 0.10000000149
  }
  convolution_param {
    num_output: 24
    bias_term: false
    weight_filler {
      type: "xavier"
    }
    pad_h: 0
    pad_w: 0
    kernel_h: 1
    kernel_w: 1
    stride_h: 2
    stride_w: 2
  }
}
layer {
  name: "conv4_1/incep/2_reduce/bn"
  type: "BatchNorm"
  bottom: "conv4_1/incep/2_reduce"
  top: "conv4_1/incep/2_reduce"
  param {
    lr_mult: 0.0
  }
  param {
    lr_mult: 0.0
  }
  param {
    lr_mult: 0.0
  }
  batch_norm_param {
    use_global_stats: true
  }
}
layer {
  name: "conv4_1/incep/2_reduce/bn_scale"
  type: "Scale"
  bottom: "conv4_1/incep/2_reduce"
  top: "conv4_1/incep/2_reduce"
  param {
    lr_mult: 0.10000000149
    decay_mult: 0.0
  }
  param {
    lr_mult: 0.10000000149
    decay_mult: 0.0
  }
  scale_param {
    bias_term: true
  }
}
layer {
  name: "conv4_1/incep/2_reduce/relu"
  type: "ReLU"
  bottom: "conv4_1/incep/2_reduce"
  top: "conv4_1/incep/2_reduce"
}
layer {
  name: "conv4_1/incep/2_0/conv"
  type: "Convolution"
  bottom: "conv4_1/incep/2_reduce"
  top: "conv4_1/incep/2_0"
  param {
    lr_mult: 0.10000000149
    decay_mult: 0.10000000149
  }
  convolution_param {
    num_output: 48
    bias_term: false
    weight_filler {
      type: "xavier"
    }
    pad_h: 1
    pad_w: 1
    kernel_h: 3
    kernel_w: 3
    stride_h: 1
    stride_w: 1
  }
}
layer {
  name: "conv4_1/incep/2_0/bn"
  type: "BatchNorm"
  bottom: "conv4_1/incep/2_0"
  top: "conv4_1/incep/2_0"
  param {
    lr_mult: 0.0
  }
  param {
    lr_mult: 0.0
  }
  param {
    lr_mult: 0.0
  }
  batch_norm_param {
    use_global_stats: true
  }
}
layer {
  name: "conv4_1/incep/2_0/bn_scale"
  type: "Scale"
  bottom: "conv4_1/incep/2_0"
  top: "conv4_1/incep/2_0"
  param {
    lr_mult: 0.10000000149
    decay_mult: 0.0
  }
  param {
    lr_mult: 0.10000000149
    decay_mult: 0.0
  }
  scale_param {
    bias_term: true
  }
}
layer {
  name: "conv4_1/incep/2_0/relu"
  type: "ReLU"
  bottom: "conv4_1/incep/2_0"
  top: "conv4_1/incep/2_0"
}
layer {
  name: "conv4_1/incep/2_1/conv"
  type: "Convolution"
  bottom: "conv4_1/incep/2_0"
  top: "conv4_1/incep/2_1"
  param {
    lr_mult: 0.10000000149
    decay_mult: 0.10000000149
  }
  convolution_param {
    num_output: 48
    bias_term: false
    weight_filler {
      type: "xavier"
    }
    pad_h: 1
    pad_w: 1
    kernel_h: 3
    kernel_w: 3
    stride_h: 1
    stride_w: 1
  }
}
layer {
  name: "conv4_1/incep/2_1/bn"
  type: "BatchNorm"
  bottom: "conv4_1/incep/2_1"
  top: "conv4_1/incep/2_1"
  param {
    lr_mult: 0.0
  }
  param {
    lr_mult: 0.0
  }
  param {
    lr_mult: 0.0
  }
  batch_norm_param {
    use_global_stats: true
  }
}
layer {
  name: "conv4_1/incep/2_1/bn_scale"
  type: "Scale"
  bottom: "conv4_1/incep/2_1"
  top: "conv4_1/incep/2_1"
  param {
    lr_mult: 0.10000000149
    decay_mult: 0.0
  }
  param {
    lr_mult: 0.10000000149
    decay_mult: 0.0
  }
  scale_param {
    bias_term: true
  }
}
layer {
  name: "conv4_1/incep/2_1/relu"
  type: "ReLU"
  bottom: "conv4_1/incep/2_1"
  top: "conv4_1/incep/2_1"
}
layer {
  name: "conv4_1/incep/pool"
  type: "Pooling"
  bottom: "conv4_1/incep/pre"
  top: "conv4_1/incep/pool"
  pooling_param {
    pool: MAX
    kernel_size: 3
    stride: 2
    pad: 0
  }
}
layer {
  name: "conv4_1/incep/poolproj/conv"
  type: "Convolution"
  bottom: "conv4_1/incep/pool"
  top: "Convolution1"
  param {
    lr_mult: 0.10000000149
    decay_mult: 0.10000000149
  }
  convolution_param {
    num_output: 128
    bias_term: false
    weight_filler {
      type: "xavier"
    }
    pad_h: 0
    pad_w: 0
    kernel_h: 1
    kernel_w: 1
    stride_h: 1
    stride_w: 1
  }
}
layer {
  name: "conv4_1/incep/poolproj/bn"
  type: "BatchNorm"
  bottom: "Convolution1"
  top: "Convolution1"
  param {
    lr_mult: 0.0
  }
  param {
    lr_mult: 0.0
  }
  param {
    lr_mult: 0.0
  }
  batch_norm_param {
    use_global_stats: true
  }
}
layer {
  name: "conv4_1/incep/poolproj/bn_scale"
  type: "Scale"
  bottom: "Convolution1"
  top: "Convolution1"
  param {
    lr_mult: 0.10000000149
    decay_mult: 0.0
  }
  param {
    lr_mult: 0.10000000149
    decay_mult: 0.0
  }
  scale_param {
    bias_term: true
  }
}
layer {
  name: "conv4_1/incep/poolproj/relu"
  type: "ReLU"
  bottom: "Convolution1"
  top: "Convolution1"
}
layer {
  name: "conv4_1/incep"
  type: "Concat"
  bottom: "conv4_1/incep/0"
  bottom: "conv4_1/incep/1_0"
  bottom: "conv4_1/incep/2_1"
  bottom: "Convolution1"
  top: "conv4_1/incep"
}
layer {
  name: "conv4_1/out/conv"
  type: "Convolution"
  bottom: "conv4_1/incep"
  top: "conv4_1/out"
  param {
    lr_mult: 0.10000000149
    decay_mult: 0.10000000149
  }
  param {
    lr_mult: 0.20000000298
    decay_mult: 0.0
  }
  convolution_param {
    num_output: 256
    weight_filler {
      type: "xavier"
    }
    pad_h: 0
    pad_w: 0
    kernel_h: 1
    kernel_w: 1
    stride_h: 1
    stride_w: 1
  }
}
layer {
  name: "conv4_1/proj"
  type: "Convolution"
  bottom: "conv3_4"
  top: "conv4_1/proj"
  param {
    lr_mult: 0.10000000149
    decay_mult: 0.10000000149
  }
  param {
    lr_mult: 0.20000000298
    decay_mult: 0.0
  }
  convolution_param {
    num_output: 256
    weight_filler {
      type: "xavier"
    }
    pad_h: 0
    pad_w: 0
    kernel_h: 1
    kernel_w: 1
    stride_h: 2
    stride_w: 2
  }
}
layer {
  name: "conv4_1"
  type: "Eltwise"
  bottom: "conv4_1/out"
  bottom: "conv4_1/proj"
  top: "conv4_1"
  eltwise_param {
    operation: SUM
    coeff: 1.0
    coeff: 1.0
  }
}
layer {
  name: "conv4_2/incep/bn"
  type: "BatchNorm"
  bottom: "conv4_1"
  top: "conv4_2/incep/pre"
  param {
    lr_mult: 0.0
  }
  param {
    lr_mult: 0.0
  }
  param {
    lr_mult: 0.0
  }
  batch_norm_param {
    use_global_stats: true
  }
}
layer {
  name: "conv4_2/incep/bn_scale"
  type: "Scale"
  bottom: "conv4_2/incep/pre"
  top: "conv4_2/incep/pre"
  param {
    lr_mult: 0.10000000149
    decay_mult: 0.0
  }
  param {
    lr_mult: 0.10000000149
    decay_mult: 0.0
  }
  scale_param {
    bias_term: true
  }
}
layer {
  name: "conv4_2/incep/relu"
  type: "ReLU"
  bottom: "conv4_2/incep/pre"
  top: "conv4_2/incep/pre"
}
layer {
  name: "conv4_2/incep/0/conv"
  type: "Convolution"
  bottom: "conv4_2/incep/pre"
  top: "conv4_2/incep/0"
  param {
    lr_mult: 0.10000000149
    decay_mult: 0.10000000149
  }
  convolution_param {
    num_output: 64
    bias_term: false
    weight_filler {
      type: "xavier"
    }
    pad_h: 0
    pad_w: 0
    kernel_h: 1
    kernel_w: 1
    stride_h: 1
    stride_w: 1
  }
}
layer {
  name: "conv4_2/incep/0/bn"
  type: "BatchNorm"
  bottom: "conv4_2/incep/0"
  top: "conv4_2/incep/0"
  param {
    lr_mult: 0.0
  }
  param {
    lr_mult: 0.0
  }
  param {
    lr_mult: 0.0
  }
  batch_norm_param {
    use_global_stats: true
  }
}
layer {
  name: "conv4_2/incep/0/bn_scale"
  type: "Scale"
  bottom: "conv4_2/incep/0"
  top: "conv4_2/incep/0"
  param {
    lr_mult: 0.10000000149
    decay_mult: 0.0
  }
  param {
    lr_mult: 0.10000000149
    decay_mult: 0.0
  }
  scale_param {
    bias_term: true
  }
}
layer {
  name: "conv4_2/incep/0/relu"
  type: "ReLU"
  bottom: "conv4_2/incep/0"
  top: "conv4_2/incep/0"
}
layer {
  name: "conv4_2/incep/1_reduce/conv"
  type: "Convolution"
  bottom: "conv4_2/incep/pre"
  top: "conv4_2/incep/1_reduce"
  param {
    lr_mult: 0.10000000149
    decay_mult: 0.10000000149
  }
  convolution_param {
    num_output: 64
    bias_term: false
    weight_filler {
      type: "xavier"
    }
    pad_h: 0
    pad_w: 0
    kernel_h: 1
    kernel_w: 1
    stride_h: 1
    stride_w: 1
  }
}
layer {
  name: "conv4_2/incep/1_reduce/bn"
  type: "BatchNorm"
  bottom: "conv4_2/incep/1_reduce"
  top: "conv4_2/incep/1_reduce"
  param {
    lr_mult: 0.0
  }
  param {
    lr_mult: 0.0
  }
  param {
    lr_mult: 0.0
  }
  batch_norm_param {
    use_global_stats: true
  }
}
layer {
  name: "conv4_2/incep/1_reduce/bn_scale"
  type: "Scale"
  bottom: "conv4_2/incep/1_reduce"
  top: "conv4_2/incep/1_reduce"
  param {
    lr_mult: 0.10000000149
    decay_mult: 0.0
  }
  param {
    lr_mult: 0.10000000149
    decay_mult: 0.0
  }
  scale_param {
    bias_term: true
  }
}
layer {
  name: "conv4_2/incep/1_reduce/relu"
  type: "ReLU"
  bottom: "conv4_2/incep/1_reduce"
  top: "conv4_2/incep/1_reduce"
}
layer {
  name: "conv4_2/incep/1_0/conv"
  type: "Convolution"
  bottom: "conv4_2/incep/1_reduce"
  top: "conv4_2/incep/1_0"
  param {
    lr_mult: 0.10000000149
    decay_mult: 0.10000000149
  }
  convolution_param {
    num_output: 128
    bias_term: false
    weight_filler {
      type: "xavier"
    }
    pad_h: 1
    pad_w: 1
    kernel_h: 3
    kernel_w: 3
    stride_h: 1
    stride_w: 1
  }
}
layer {
  name: "conv4_2/incep/1_0/bn"
  type: "BatchNorm"
  bottom: "conv4_2/incep/1_0"
  top: "conv4_2/incep/1_0"
  param {
    lr_mult: 0.0
  }
  param {
    lr_mult: 0.0
  }
  param {
    lr_mult: 0.0
  }
  batch_norm_param {
    use_global_stats: true
  }
}
layer {
  name: "conv4_2/incep/1_0/bn_scale"
  type: "Scale"
  bottom: "conv4_2/incep/1_0"
  top: "conv4_2/incep/1_0"
  param {
    lr_mult: 0.10000000149
    decay_mult: 0.0
  }
  param {
    lr_mult: 0.10000000149
    decay_mult: 0.0
  }
  scale_param {
    bias_term: true
  }
}
layer {
  name: "conv4_2/incep/1_0/relu"
  type: "ReLU"
  bottom: "conv4_2/incep/1_0"
  top: "conv4_2/incep/1_0"
}
layer {
  name: "conv4_2/incep/2_reduce/conv"
  type: "Convolution"
  bottom: "conv4_2/incep/pre"
  top: "conv4_2/incep/2_reduce"
  param {
    lr_mult: 0.10000000149
    decay_mult: 0.10000000149
  }
  convolution_param {
    num_output: 24
    bias_term: false
    weight_filler {
      type: "xavier"
    }
    pad_h: 0
    pad_w: 0
    kernel_h: 1
    kernel_w: 1
    stride_h: 1
    stride_w: 1
  }
}
layer {
  name: "conv4_2/incep/2_reduce/bn"
  type: "BatchNorm"
  bottom: "conv4_2/incep/2_reduce"
  top: "conv4_2/incep/2_reduce"
  param {
    lr_mult: 0.0
  }
  param {
    lr_mult: 0.0
  }
  param {
    lr_mult: 0.0
  }
  batch_norm_param {
    use_global_stats: true
  }
}
layer {
  name: "conv4_2/incep/2_reduce/bn_scale"
  type: "Scale"
  bottom: "conv4_2/incep/2_reduce"
  top: "conv4_2/incep/2_reduce"
  param {
    lr_mult: 0.10000000149
    decay_mult: 0.0
  }
  param {
    lr_mult: 0.10000000149
    decay_mult: 0.0
  }
  scale_param {
    bias_term: true
  }
}
layer {
  name: "conv4_2/incep/2_reduce/relu"
  type: "ReLU"
  bottom: "conv4_2/incep/2_reduce"
  top: "conv4_2/incep/2_reduce"
}
layer {
  name: "conv4_2/incep/2_0/conv"
  type: "Convolution"
  bottom: "conv4_2/incep/2_reduce"
  top: "conv4_2/incep/2_0"
  param {
    lr_mult: 0.10000000149
    decay_mult: 0.10000000149
  }
  convolution_param {
    num_output: 48
    bias_term: false
    weight_filler {
      type: "xavier"
    }
    pad_h: 1
    pad_w: 1
    kernel_h: 3
    kernel_w: 3
    stride_h: 1
    stride_w: 1
  }
}
layer {
  name: "conv4_2/incep/2_0/bn"
  type: "BatchNorm"
  bottom: "conv4_2/incep/2_0"
  top: "conv4_2/incep/2_0"
  param {
    lr_mult: 0.0
  }
  param {
    lr_mult: 0.0
  }
  param {
    lr_mult: 0.0
  }
  batch_norm_param {
    use_global_stats: true
  }
}
layer {
  name: "conv4_2/incep/2_0/bn_scale"
  type: "Scale"
  bottom: "conv4_2/incep/2_0"
  top: "conv4_2/incep/2_0"
  param {
    lr_mult: 0.10000000149
    decay_mult: 0.0
  }
  param {
    lr_mult: 0.10000000149
    decay_mult: 0.0
  }
  scale_param {
    bias_term: true
  }
}
layer {
  name: "conv4_2/incep/2_0/relu"
  type: "ReLU"
  bottom: "conv4_2/incep/2_0"
  top: "conv4_2/incep/2_0"
}
layer {
  name: "conv4_2/incep/2_1/conv"
  type: "Convolution"
  bottom: "conv4_2/incep/2_0"
  top: "conv4_2/incep/2_1"
  param {
    lr_mult: 0.10000000149
    decay_mult: 0.10000000149
  }
  convolution_param {
    num_output: 48
    bias_term: false
    weight_filler {
      type: "xavier"
    }
    pad_h: 1
    pad_w: 1
    kernel_h: 3
    kernel_w: 3
    stride_h: 1
    stride_w: 1
  }
}
layer {
  name: "conv4_2/incep/2_1/bn"
  type: "BatchNorm"
  bottom: "conv4_2/incep/2_1"
  top: "conv4_2/incep/2_1"
  param {
    lr_mult: 0.0
  }
  param {
    lr_mult: 0.0
  }
  param {
    lr_mult: 0.0
  }
  batch_norm_param {
    use_global_stats: true
  }
}
layer {
  name: "conv4_2/incep/2_1/bn_scale"
  type: "Scale"
  bottom: "conv4_2/incep/2_1"
  top: "conv4_2/incep/2_1"
  param {
    lr_mult: 0.10000000149
    decay_mult: 0.0
  }
  param {
    lr_mult: 0.10000000149
    decay_mult: 0.0
  }
  scale_param {
    bias_term: true
  }
}
layer {
  name: "conv4_2/incep/2_1/relu"
  type: "ReLU"
  bottom: "conv4_2/incep/2_1"
  top: "conv4_2/incep/2_1"
}
layer {
  name: "conv4_2/incep"
  type: "Concat"
  bottom: "conv4_2/incep/0"
  bottom: "conv4_2/incep/1_0"
  bottom: "conv4_2/incep/2_1"
  top: "conv4_2/incep"
}
layer {
  name: "conv4_2/out/conv"
  type: "Convolution"
  bottom: "conv4_2/incep"
  top: "conv4_2/out"
  param {
    lr_mult: 0.10000000149
    decay_mult: 0.10000000149
  }
  param {
    lr_mult: 0.20000000298
    decay_mult: 0.0
  }
  convolution_param {
    num_output: 256
    weight_filler {
      type: "xavier"
    }
    pad_h: 0
    pad_w: 0
    kernel_h: 1
    kernel_w: 1
    stride_h: 1
    stride_w: 1
  }
}
layer {
  name: "conv4_2/input"
  type: "Power"
  bottom: "conv4_1"
  top: "conv4_2/input"
}
layer {
  name: "conv4_2"
  type: "Eltwise"
  bottom: "conv4_2/out"
  bottom: "conv4_2/input"
  top: "conv4_2"
  eltwise_param {
    operation: SUM
    coeff: 1.0
    coeff: 1.0
  }
}
layer {
  name: "conv4_3/incep/bn"
  type: "BatchNorm"
  bottom: "conv4_2"
  top: "conv4_3/incep/pre"
  param {
    lr_mult: 0.0
  }
  param {
    lr_mult: 0.0
  }
  param {
    lr_mult: 0.0
  }
  batch_norm_param {
    use_global_stats: true
  }
}
layer {
  name: "conv4_3/incep/bn_scale"
  type: "Scale"
  bottom: "conv4_3/incep/pre"
  top: "conv4_3/incep/pre"
  param {
    lr_mult: 0.10000000149
    decay_mult: 0.0
  }
  param {
    lr_mult: 0.10000000149
    decay_mult: 0.0
  }
  scale_param {
    bias_term: true
  }
}
layer {
  name: "conv4_3/incep/relu"
  type: "ReLU"
  bottom: "conv4_3/incep/pre"
  top: "conv4_3/incep/pre"
}
layer {
  name: "conv4_3/incep/0/conv"
  type: "Convolution"
  bottom: "conv4_3/incep/pre"
  top: "conv4_3/incep/0"
  param {
    lr_mult: 0.10000000149
    decay_mult: 0.10000000149
  }
  convolution_param {
    num_output: 64
    bias_term: false
    weight_filler {
      type: "xavier"
    }
    pad_h: 0
    pad_w: 0
    kernel_h: 1
    kernel_w: 1
    stride_h: 1
    stride_w: 1
  }
}
layer {
  name: "conv4_3/incep/0/bn"
  type: "BatchNorm"
  bottom: "conv4_3/incep/0"
  top: "conv4_3/incep/0"
  param {
    lr_mult: 0.0
  }
  param {
    lr_mult: 0.0
  }
  param {
    lr_mult: 0.0
  }
  batch_norm_param {
    use_global_stats: true
  }
}
layer {
  name: "conv4_3/incep/0/bn_scale"
  type: "Scale"
  bottom: "conv4_3/incep/0"
  top: "conv4_3/incep/0"
  param {
    lr_mult: 0.10000000149
    decay_mult: 0.0
  }
  param {
    lr_mult: 0.10000000149
    decay_mult: 0.0
  }
  scale_param {
    bias_term: true
  }
}
layer {
  name: "conv4_3/incep/0/relu"
  type: "ReLU"
  bottom: "conv4_3/incep/0"
  top: "conv4_3/incep/0"
}
layer {
  name: "conv4_3/incep/1_reduce/conv"
  type: "Convolution"
  bottom: "conv4_3/incep/pre"
  top: "conv4_3/incep/1_reduce"
  param {
    lr_mult: 0.10000000149
    decay_mult: 0.10000000149
  }
  convolution_param {
    num_output: 64
    bias_term: false
    weight_filler {
      type: "xavier"
    }
    pad_h: 0
    pad_w: 0
    kernel_h: 1
    kernel_w: 1
    stride_h: 1
    stride_w: 1
  }
}
layer {
  name: "conv4_3/incep/1_reduce/bn"
  type: "BatchNorm"
  bottom: "conv4_3/incep/1_reduce"
  top: "conv4_3/incep/1_reduce"
  param {
    lr_mult: 0.0
  }
  param {
    lr_mult: 0.0
  }
  param {
    lr_mult: 0.0
  }
  batch_norm_param {
    use_global_stats: true
  }
}
layer {
  name: "conv4_3/incep/1_reduce/bn_scale"
  type: "Scale"
  bottom: "conv4_3/incep/1_reduce"
  top: "conv4_3/incep/1_reduce"
  param {
    lr_mult: 0.10000000149
    decay_mult: 0.0
  }
  param {
    lr_mult: 0.10000000149
    decay_mult: 0.0
  }
  scale_param {
    bias_term: true
  }
}
layer {
  name: "conv4_3/incep/1_reduce/relu"
  type: "ReLU"
  bottom: "conv4_3/incep/1_reduce"
  top: "conv4_3/incep/1_reduce"
}
layer {
  name: "conv4_3/incep/1_0/conv"
  type: "Convolution"
  bottom: "conv4_3/incep/1_reduce"
  top: "conv4_3/incep/1_0"
  param {
    lr_mult: 0.10000000149
    decay_mult: 0.10000000149
  }
  convolution_param {
    num_output: 128
    bias_term: false
    weight_filler {
      type: "xavier"
    }
    pad_h: 1
    pad_w: 1
    kernel_h: 3
    kernel_w: 3
    stride_h: 1
    stride_w: 1
  }
}
layer {
  name: "conv4_3/incep/1_0/bn"
  type: "BatchNorm"
  bottom: "conv4_3/incep/1_0"
  top: "conv4_3/incep/1_0"
  param {
    lr_mult: 0.0
  }
  param {
    lr_mult: 0.0
  }
  param {
    lr_mult: 0.0
  }
  batch_norm_param {
    use_global_stats: true
  }
}
layer {
  name: "conv4_3/incep/1_0/bn_scale"
  type: "Scale"
  bottom: "conv4_3/incep/1_0"
  top: "conv4_3/incep/1_0"
  param {
    lr_mult: 0.10000000149
    decay_mult: 0.0
  }
  param {
    lr_mult: 0.10000000149
    decay_mult: 0.0
  }
  scale_param {
    bias_term: true
  }
}
layer {
  name: "conv4_3/incep/1_0/relu"
  type: "ReLU"
  bottom: "conv4_3/incep/1_0"
  top: "conv4_3/incep/1_0"
}
layer {
  name: "conv4_3/incep/2_reduce/conv"
  type: "Convolution"
  bottom: "conv4_3/incep/pre"
  top: "conv4_3/incep/2_reduce"
  param {
    lr_mult: 0.10000000149
    decay_mult: 0.10000000149
  }
  convolution_param {
    num_output: 24
    bias_term: false
    weight_filler {
      type: "xavier"
    }
    pad_h: 0
    pad_w: 0
    kernel_h: 1
    kernel_w: 1
    stride_h: 1
    stride_w: 1
  }
}
layer {
  name: "conv4_3/incep/2_reduce/bn"
  type: "BatchNorm"
  bottom: "conv4_3/incep/2_reduce"
  top: "conv4_3/incep/2_reduce"
  param {
    lr_mult: 0.0
  }
  param {
    lr_mult: 0.0
  }
  param {
    lr_mult: 0.0
  }
  batch_norm_param {
    use_global_stats: true
  }
}
layer {
  name: "conv4_3/incep/2_reduce/bn_scale"
  type: "Scale"
  bottom: "conv4_3/incep/2_reduce"
  top: "conv4_3/incep/2_reduce"
  param {
    lr_mult: 0.10000000149
    decay_mult: 0.0
  }
  param {
    lr_mult: 0.10000000149
    decay_mult: 0.0
  }
  scale_param {
    bias_term: true
  }
}
layer {
  name: "conv4_3/incep/2_reduce/relu"
  type: "ReLU"
  bottom: "conv4_3/incep/2_reduce"
  top: "conv4_3/incep/2_reduce"
}
layer {
  name: "conv4_3/incep/2_0/conv"
  type: "Convolution"
  bottom: "conv4_3/incep/2_reduce"
  top: "conv4_3/incep/2_0"
  param {
    lr_mult: 0.10000000149
    decay_mult: 0.10000000149
  }
  convolution_param {
    num_output: 48
    bias_term: false
    weight_filler {
      type: "xavier"
    }
    pad_h: 1
    pad_w: 1
    kernel_h: 3
    kernel_w: 3
    stride_h: 1
    stride_w: 1
  }
}
layer {
  name: "conv4_3/incep/2_0/bn"
  type: "BatchNorm"
  bottom: "conv4_3/incep/2_0"
  top: "conv4_3/incep/2_0"
  param {
    lr_mult: 0.0
  }
  param {
    lr_mult: 0.0
  }
  param {
    lr_mult: 0.0
  }
  batch_norm_param {
    use_global_stats: true
  }
}
layer {
  name: "conv4_3/incep/2_0/bn_scale"
  type: "Scale"
  bottom: "conv4_3/incep/2_0"
  top: "conv4_3/incep/2_0"
  param {
    lr_mult: 0.10000000149
    decay_mult: 0.0
  }
  param {
    lr_mult: 0.10000000149
    decay_mult: 0.0
  }
  scale_param {
    bias_term: true
  }
}
layer {
  name: "conv4_3/incep/2_0/relu"
  type: "ReLU"
  bottom: "conv4_3/incep/2_0"
  top: "conv4_3/incep/2_0"
}
layer {
  name: "conv4_3/incep/2_1/conv"
  type: "Convolution"
  bottom: "conv4_3/incep/2_0"
  top: "conv4_3/incep/2_1"
  param {
    lr_mult: 0.10000000149
    decay_mult: 0.10000000149
  }
  convolution_param {
    num_output: 48
    bias_term: false
    weight_filler {
      type: "xavier"
    }
    pad_h: 1
    pad_w: 1
    kernel_h: 3
    kernel_w: 3
    stride_h: 1
    stride_w: 1
  }
}
layer {
  name: "conv4_3/incep/2_1/bn"
  type: "BatchNorm"
  bottom: "conv4_3/incep/2_1"
  top: "conv4_3/incep/2_1"
  param {
    lr_mult: 0.0
  }
  param {
    lr_mult: 0.0
  }
  param {
    lr_mult: 0.0
  }
  batch_norm_param {
    use_global_stats: true
  }
}
layer {
  name: "conv4_3/incep/2_1/bn_scale"
  type: "Scale"
  bottom: "conv4_3/incep/2_1"
  top: "conv4_3/incep/2_1"
  param {
    lr_mult: 0.10000000149
    decay_mult: 0.0
  }
  param {
    lr_mult: 0.10000000149
    decay_mult: 0.0
  }
  scale_param {
    bias_term: true
  }
}
layer {
  name: "conv4_3/incep/2_1/relu"
  type: "ReLU"
  bottom: "conv4_3/incep/2_1"
  top: "conv4_3/incep/2_1"
}
layer {
  name: "conv4_3/incep"
  type: "Concat"
  bottom: "conv4_3/incep/0"
  bottom: "conv4_3/incep/1_0"
  bottom: "conv4_3/incep/2_1"
  top: "conv4_3/incep"
}
layer {
  name: "conv4_3/out/conv"
  type: "Convolution"
  bottom: "conv4_3/incep"
  top: "conv4_3/out"
  param {
    lr_mult: 0.10000000149
    decay_mult: 0.10000000149
  }
  param {
    lr_mult: 0.20000000298
    decay_mult: 0.0
  }
  convolution_param {
    num_output: 256
    weight_filler {
      type: "xavier"
    }
    pad_h: 0
    pad_w: 0
    kernel_h: 1
    kernel_w: 1
    stride_h: 1
    stride_w: 1
  }
}
layer {
  name: "conv4_3/input"
  type: "Power"
  bottom: "conv4_2"
  top: "conv4_3/input"
}
layer {
  name: "conv4_3"
  type: "Eltwise"
  bottom: "conv4_3/out"
  bottom: "conv4_3/input"
  top: "conv4_3"
  eltwise_param {
    operation: SUM
    coeff: 1.0
    coeff: 1.0
  }
}
layer {
  name: "conv4_4/incep/bn"
  type: "BatchNorm"
  bottom: "conv4_3"
  top: "conv4_4/incep/pre"
  param {
    lr_mult: 0.0
  }
  param {
    lr_mult: 0.0
  }
  param {
    lr_mult: 0.0
  }
  batch_norm_param {
    use_global_stats: true
  }
}
layer {
  name: "conv4_4/incep/bn_scale"
  type: "Scale"
  bottom: "conv4_4/incep/pre"
  top: "conv4_4/incep/pre"
  param {
    lr_mult: 0.10000000149
    decay_mult: 0.0
  }
  param {
    lr_mult: 0.10000000149
    decay_mult: 0.0
  }
  scale_param {
    bias_term: true
  }
}
layer {
  name: "conv4_4/incep/relu"
  type: "ReLU"
  bottom: "conv4_4/incep/pre"
  top: "conv4_4/incep/pre"
}
layer {
  name: "conv4_4/incep/0/conv"
  type: "Convolution"
  bottom: "conv4_4/incep/pre"
  top: "conv4_4/incep/0"
  param {
    lr_mult: 0.10000000149
    decay_mult: 0.10000000149
  }
  convolution_param {
    num_output: 64
    bias_term: false
    weight_filler {
      type: "xavier"
    }
    pad_h: 0
    pad_w: 0
    kernel_h: 1
    kernel_w: 1
    stride_h: 1
    stride_w: 1
  }
}
layer {
  name: "conv4_4/incep/0/bn"
  type: "BatchNorm"
  bottom: "conv4_4/incep/0"
  top: "conv4_4/incep/0"
  param {
    lr_mult: 0.0
  }
  param {
    lr_mult: 0.0
  }
  param {
    lr_mult: 0.0
  }
  batch_norm_param {
    use_global_stats: true
  }
}
layer {
  name: "conv4_4/incep/0/bn_scale"
  type: "Scale"
  bottom: "conv4_4/incep/0"
  top: "conv4_4/incep/0"
  param {
    lr_mult: 0.10000000149
    decay_mult: 0.0
  }
  param {
    lr_mult: 0.10000000149
    decay_mult: 0.0
  }
  scale_param {
    bias_term: true
  }
}
layer {
  name: "conv4_4/incep/0/relu"
  type: "ReLU"
  bottom: "conv4_4/incep/0"
  top: "conv4_4/incep/0"
}
layer {
  name: "conv4_4/incep/1_reduce/conv"
  type: "Convolution"
  bottom: "conv4_4/incep/pre"
  top: "conv4_4/incep/1_reduce"
  param {
    lr_mult: 0.10000000149
    decay_mult: 0.10000000149
  }
  convolution_param {
    num_output: 64
    bias_term: false
    weight_filler {
      type: "xavier"
    }
    pad_h: 0
    pad_w: 0
    kernel_h: 1
    kernel_w: 1
    stride_h: 1
    stride_w: 1
  }
}
layer {
  name: "conv4_4/incep/1_reduce/bn"
  type: "BatchNorm"
  bottom: "conv4_4/incep/1_reduce"
  top: "conv4_4/incep/1_reduce"
  param {
    lr_mult: 0.0
  }
  param {
    lr_mult: 0.0
  }
  param {
    lr_mult: 0.0
  }
  batch_norm_param {
    use_global_stats: true
  }
}
layer {
  name: "conv4_4/incep/1_reduce/bn_scale"
  type: "Scale"
  bottom: "conv4_4/incep/1_reduce"
  top: "conv4_4/incep/1_reduce"
  param {
    lr_mult: 0.10000000149
    decay_mult: 0.0
  }
  param {
    lr_mult: 0.10000000149
    decay_mult: 0.0
  }
  scale_param {
    bias_term: true
  }
}
layer {
  name: "conv4_4/incep/1_reduce/relu"
  type: "ReLU"
  bottom: "conv4_4/incep/1_reduce"
  top: "conv4_4/incep/1_reduce"
}
layer {
  name: "conv4_4/incep/1_0/conv"
  type: "Convolution"
  bottom: "conv4_4/incep/1_reduce"
  top: "conv4_4/incep/1_0"
  param {
    lr_mult: 0.10000000149
    decay_mult: 0.10000000149
  }
  convolution_param {
    num_output: 128
    bias_term: false
    weight_filler {
      type: "xavier"
    }
    pad_h: 1
    pad_w: 1
    kernel_h: 3
    kernel_w: 3
    stride_h: 1
    stride_w: 1
  }
}
layer {
  name: "conv4_4/incep/1_0/bn"
  type: "BatchNorm"
  bottom: "conv4_4/incep/1_0"
  top: "conv4_4/incep/1_0"
  param {
    lr_mult: 0.0
  }
  param {
    lr_mult: 0.0
  }
  param {
    lr_mult: 0.0
  }
  batch_norm_param {
    use_global_stats: true
  }
}
layer {
  name: "conv4_4/incep/1_0/bn_scale"
  type: "Scale"
  bottom: "conv4_4/incep/1_0"
  top: "conv4_4/incep/1_0"
  param {
    lr_mult: 0.10000000149
    decay_mult: 0.0
  }
  param {
    lr_mult: 0.10000000149
    decay_mult: 0.0
  }
  scale_param {
    bias_term: true
  }
}
layer {
  name: "conv4_4/incep/1_0/relu"
  type: "ReLU"
  bottom: "conv4_4/incep/1_0"
  top: "conv4_4/incep/1_0"
}
layer {
  name: "conv4_4/incep/2_reduce/conv"
  type: "Convolution"
  bottom: "conv4_4/incep/pre"
  top: "conv4_4/incep/2_reduce"
  param {
    lr_mult: 0.10000000149
    decay_mult: 0.10000000149
  }
  convolution_param {
    num_output: 24
    bias_term: false
    weight_filler {
      type: "xavier"
    }
    pad_h: 0
    pad_w: 0
    kernel_h: 1
    kernel_w: 1
    stride_h: 1
    stride_w: 1
  }
}
layer {
  name: "conv4_4/incep/2_reduce/bn"
  type: "BatchNorm"
  bottom: "conv4_4/incep/2_reduce"
  top: "conv4_4/incep/2_reduce"
  param {
    lr_mult: 0.0
  }
  param {
    lr_mult: 0.0
  }
  param {
    lr_mult: 0.0
  }
  batch_norm_param {
    use_global_stats: true
  }
}
layer {
  name: "conv4_4/incep/2_reduce/bn_scale"
  type: "Scale"
  bottom: "conv4_4/incep/2_reduce"
  top: "conv4_4/incep/2_reduce"
  param {
    lr_mult: 0.10000000149
    decay_mult: 0.0
  }
  param {
    lr_mult: 0.10000000149
    decay_mult: 0.0
  }
  scale_param {
    bias_term: true
  }
}
layer {
  name: "conv4_4/incep/2_reduce/relu"
  type: "ReLU"
  bottom: "conv4_4/incep/2_reduce"
  top: "conv4_4/incep/2_reduce"
}
layer {
  name: "conv4_4/incep/2_0/conv"
  type: "Convolution"
  bottom: "conv4_4/incep/2_reduce"
  top: "conv4_4/incep/2_0"
  param {
    lr_mult: 0.10000000149
    decay_mult: 0.10000000149
  }
  convolution_param {
    num_output: 48
    bias_term: false
    weight_filler {
      type: "xavier"
    }
    pad_h: 1
    pad_w: 1
    kernel_h: 3
    kernel_w: 3
    stride_h: 1
    stride_w: 1
  }
}
layer {
  name: "conv4_4/incep/2_0/bn"
  type: "BatchNorm"
  bottom: "conv4_4/incep/2_0"
  top: "conv4_4/incep/2_0"
  param {
    lr_mult: 0.0
  }
  param {
    lr_mult: 0.0
  }
  param {
    lr_mult: 0.0
  }
  batch_norm_param {
    use_global_stats: true
  }
}
layer {
  name: "conv4_4/incep/2_0/bn_scale"
  type: "Scale"
  bottom: "conv4_4/incep/2_0"
  top: "conv4_4/incep/2_0"
  param {
    lr_mult: 0.10000000149
    decay_mult: 0.0
  }
  param {
    lr_mult: 0.10000000149
    decay_mult: 0.0
  }
  scale_param {
    bias_term: true
  }
}
layer {
  name: "conv4_4/incep/2_0/relu"
  type: "ReLU"
  bottom: "conv4_4/incep/2_0"
  top: "conv4_4/incep/2_0"
}
layer {
  name: "conv4_4/incep/2_1/conv"
  type: "Convolution"
  bottom: "conv4_4/incep/2_0"
  top: "conv4_4/incep/2_1"
  param {
    lr_mult: 0.10000000149
    decay_mult: 0.10000000149
  }
  convolution_param {
    num_output: 48
    bias_term: false
    weight_filler {
      type: "xavier"
    }
    pad_h: 1
    pad_w: 1
    kernel_h: 3
    kernel_w: 3
    stride_h: 1
    stride_w: 1
  }
}
layer {
  name: "conv4_4/incep/2_1/bn"
  type: "BatchNorm"
  bottom: "conv4_4/incep/2_1"
  top: "conv4_4/incep/2_1"
  param {
    lr_mult: 0.0
  }
  param {
    lr_mult: 0.0
  }
  param {
    lr_mult: 0.0
  }
  batch_norm_param {
    use_global_stats: true
  }
}
layer {
  name: "conv4_4/incep/2_1/bn_scale"
  type: "Scale"
  bottom: "conv4_4/incep/2_1"
  top: "conv4_4/incep/2_1"
  param {
    lr_mult: 0.10000000149
    decay_mult: 0.0
  }
  param {
    lr_mult: 0.10000000149
    decay_mult: 0.0
  }
  scale_param {
    bias_term: true
  }
}
layer {
  name: "conv4_4/incep/2_1/relu"
  type: "ReLU"
  bottom: "conv4_4/incep/2_1"
  top: "conv4_4/incep/2_1"
}
layer {
  name: "conv4_4/incep"
  type: "Concat"
  bottom: "conv4_4/incep/0"
  bottom: "conv4_4/incep/1_0"
  bottom: "conv4_4/incep/2_1"
  top: "conv4_4/incep"
}
layer {
  name: "conv4_4/out/conv"
  type: "Convolution"
  bottom: "conv4_4/incep"
  top: "conv4_4/out"
  param {
    lr_mult: 0.10000000149
    decay_mult: 0.10000000149
  }
  param {
    lr_mult: 0.20000000298
    decay_mult: 0.0
  }
  convolution_param {
    num_output: 256
    weight_filler {
      type: "xavier"
    }
    pad_h: 0
    pad_w: 0
    kernel_h: 1
    kernel_w: 1
    stride_h: 1
    stride_w: 1
  }
}
layer {
  name: "conv4_4/input"
  type: "Power"
  bottom: "conv4_3"
  top: "conv4_4/input"
}
layer {
  name: "conv4_4"
  type: "Eltwise"
  bottom: "conv4_4/out"
  bottom: "conv4_4/input"
  top: "conv4_4"
  eltwise_param {
    operation: SUM
    coeff: 1.0
    coeff: 1.0
  }
}
layer {
  name: "conv5_1/incep/bn"
  type: "BatchNorm"
  bottom: "conv4_4"
  top: "conv5_1/incep/pre"
  param {
    lr_mult: 0.0
  }
  param {
    lr_mult: 0.0
  }
  param {
    lr_mult: 0.0
  }
  batch_norm_param {
    use_global_stats: true
  }
}
layer {
  name: "conv5_1/incep/bn_scale"
  type: "Scale"
  bottom: "conv5_1/incep/pre"
  top: "conv5_1/incep/pre"
  param {
    lr_mult: 0.10000000149
    decay_mult: 0.0
  }
  param {
    lr_mult: 0.10000000149
    decay_mult: 0.0
  }
  scale_param {
    bias_term: true
  }
}
layer {
  name: "conv5_1/incep/relu"
  type: "ReLU"
  bottom: "conv5_1/incep/pre"
  top: "conv5_1/incep/pre"
}
layer {
  name: "conv5_1/incep/0/conv"
  type: "Convolution"
  bottom: "conv5_1/incep/pre"
  top: "conv5_1/incep/0"
  param {
    lr_mult: 0.10000000149
    decay_mult: 0.10000000149
  }
  convolution_param {
    num_output: 64
    bias_term: false
    weight_filler {
      type: "xavier"
    }
    pad_h: 0
    pad_w: 0
    kernel_h: 1
    kernel_w: 1
    stride_h: 2
    stride_w: 2
  }
}
layer {
  name: "conv5_1/incep/0/bn"
  type: "BatchNorm"
  bottom: "conv5_1/incep/0"
  top: "conv5_1/incep/0"
  param {
    lr_mult: 0.0
  }
  param {
    lr_mult: 0.0
  }
  param {
    lr_mult: 0.0
  }
  batch_norm_param {
    use_global_stats: true
  }
}
layer {
  name: "conv5_1/incep/0/bn_scale"
  type: "Scale"
  bottom: "conv5_1/incep/0"
  top: "conv5_1/incep/0"
  param {
    lr_mult: 0.10000000149
    decay_mult: 0.0
  }
  param {
    lr_mult: 0.10000000149
    decay_mult: 0.0
  }
  scale_param {
    bias_term: true
  }
}
layer {
  name: "conv5_1/incep/0/relu"
  type: "ReLU"
  bottom: "conv5_1/incep/0"
  top: "conv5_1/incep/0"
}
layer {
  name: "conv5_1/incep/1_reduce/conv"
  type: "Convolution"
  bottom: "conv5_1/incep/pre"
  top: "conv5_1/incep/1_reduce"
  param {
    lr_mult: 0.10000000149
    decay_mult: 0.10000000149
  }
  convolution_param {
    num_output: 96
    bias_term: false
    weight_filler {
      type: "xavier"
    }
    pad_h: 0
    pad_w: 0
    kernel_h: 1
    kernel_w: 1
    stride_h: 2
    stride_w: 2
  }
}
layer {
  name: "conv5_1/incep/1_reduce/bn"
  type: "BatchNorm"
  bottom: "conv5_1/incep/1_reduce"
  top: "conv5_1/incep/1_reduce"
  param {
    lr_mult: 0.0
  }
  param {
    lr_mult: 0.0
  }
  param {
    lr_mult: 0.0
  }
  batch_norm_param {
    use_global_stats: true
  }
}
layer {
  name: "conv5_1/incep/1_reduce/bn_scale"
  type: "Scale"
  bottom: "conv5_1/incep/1_reduce"
  top: "conv5_1/incep/1_reduce"
  param {
    lr_mult: 0.10000000149
    decay_mult: 0.0
  }
  param {
    lr_mult: 0.10000000149
    decay_mult: 0.0
  }
  scale_param {
    bias_term: true
  }
}
layer {
  name: "conv5_1/incep/1_reduce/relu"
  type: "ReLU"
  bottom: "conv5_1/incep/1_reduce"
  top: "conv5_1/incep/1_reduce"
}
layer {
  name: "conv5_1/incep/1_0/conv"
  type: "Convolution"
  bottom: "conv5_1/incep/1_reduce"
  top: "conv5_1/incep/1_0"
  param {
    lr_mult: 0.10000000149
    decay_mult: 0.10000000149
  }
  convolution_param {
    num_output: 192
    bias_term: false
    weight_filler {
      type: "xavier"
    }
    pad_h: 1
    pad_w: 1
    kernel_h: 3
    kernel_w: 3
    stride_h: 1
    stride_w: 1
  }
}
layer {
  name: "conv5_1/incep/1_0/bn"
  type: "BatchNorm"
  bottom: "conv5_1/incep/1_0"
  top: "conv5_1/incep/1_0"
  param {
    lr_mult: 0.0
  }
  param {
    lr_mult: 0.0
  }
  param {
    lr_mult: 0.0
  }
  batch_norm_param {
    use_global_stats: true
  }
}
layer {
  name: "conv5_1/incep/1_0/bn_scale"
  type: "Scale"
  bottom: "conv5_1/incep/1_0"
  top: "conv5_1/incep/1_0"
  param {
    lr_mult: 0.10000000149
    decay_mult: 0.0
  }
  param {
    lr_mult: 0.10000000149
    decay_mult: 0.0
  }
  scale_param {
    bias_term: true
  }
}
layer {
  name: "conv5_1/incep/1_0/relu"
  type: "ReLU"
  bottom: "conv5_1/incep/1_0"
  top: "conv5_1/incep/1_0"
}
layer {
  name: "conv5_1/incep/2_reduce/conv"
  type: "Convolution"
  bottom: "conv5_1/incep/pre"
  top: "conv5_1/incep/2_reduce"
  param {
    lr_mult: 0.10000000149
    decay_mult: 0.10000000149
  }
  convolution_param {
    num_output: 32
    bias_term: false
    weight_filler {
      type: "xavier"
    }
    pad_h: 0
    pad_w: 0
    kernel_h: 1
    kernel_w: 1
    stride_h: 2
    stride_w: 2
  }
}
layer {
  name: "conv5_1/incep/2_reduce/bn"
  type: "BatchNorm"
  bottom: "conv5_1/incep/2_reduce"
  top: "conv5_1/incep/2_reduce"
  param {
    lr_mult: 0.0
  }
  param {
    lr_mult: 0.0
  }
  param {
    lr_mult: 0.0
  }
  batch_norm_param {
    use_global_stats: true
  }
}
layer {
  name: "conv5_1/incep/2_reduce/bn_scale"
  type: "Scale"
  bottom: "conv5_1/incep/2_reduce"
  top: "conv5_1/incep/2_reduce"
  param {
    lr_mult: 0.10000000149
    decay_mult: 0.0
  }
  param {
    lr_mult: 0.10000000149
    decay_mult: 0.0
  }
  scale_param {
    bias_term: true
  }
}
layer {
  name: "conv5_1/incep/2_reduce/relu"
  type: "ReLU"
  bottom: "conv5_1/incep/2_reduce"
  top: "conv5_1/incep/2_reduce"
}
layer {
  name: "conv5_1/incep/2_0/conv"
  type: "Convolution"
  bottom: "conv5_1/incep/2_reduce"
  top: "conv5_1/incep/2_0"
  param {
    lr_mult: 0.10000000149
    decay_mult: 0.10000000149
  }
  convolution_param {
    num_output: 64
    bias_term: false
    weight_filler {
      type: "xavier"
    }
    pad_h: 1
    pad_w: 1
    kernel_h: 3
    kernel_w: 3
    stride_h: 1
    stride_w: 1
  }
}
layer {
  name: "conv5_1/incep/2_0/bn"
  type: "BatchNorm"
  bottom: "conv5_1/incep/2_0"
  top: "conv5_1/incep/2_0"
  param {
    lr_mult: 0.0
  }
  param {
    lr_mult: 0.0
  }
  param {
    lr_mult: 0.0
  }
  batch_norm_param {
    use_global_stats: true
  }
}
layer {
  name: "conv5_1/incep/2_0/bn_scale"
  type: "Scale"
  bottom: "conv5_1/incep/2_0"
  top: "conv5_1/incep/2_0"
  param {
    lr_mult: 0.10000000149
    decay_mult: 0.0
  }
  param {
    lr_mult: 0.10000000149
    decay_mult: 0.0
  }
  scale_param {
    bias_term: true
  }
}
layer {
  name: "conv5_1/incep/2_0/relu"
  type: "ReLU"
  bottom: "conv5_1/incep/2_0"
  top: "conv5_1/incep/2_0"
}
layer {
  name: "conv5_1/incep/2_1/conv"
  type: "Convolution"
  bottom: "conv5_1/incep/2_0"
  top: "conv5_1/incep/2_1"
  param {
    lr_mult: 0.10000000149
    decay_mult: 0.10000000149
  }
  convolution_param {
    num_output: 64
    bias_term: false
    weight_filler {
      type: "xavier"
    }
    pad_h: 1
    pad_w: 1
    kernel_h: 3
    kernel_w: 3
    stride_h: 1
    stride_w: 1
  }
}
layer {
  name: "conv5_1/incep/2_1/bn"
  type: "BatchNorm"
  bottom: "conv5_1/incep/2_1"
  top: "conv5_1/incep/2_1"
  param {
    lr_mult: 0.0
  }
  param {
    lr_mult: 0.0
  }
  param {
    lr_mult: 0.0
  }
  batch_norm_param {
    use_global_stats: true
  }
}
layer {
  name: "conv5_1/incep/2_1/bn_scale"
  type: "Scale"
  bottom: "conv5_1/incep/2_1"
  top: "conv5_1/incep/2_1"
  param {
    lr_mult: 0.10000000149
    decay_mult: 0.0
  }
  param {
    lr_mult: 0.10000000149
    decay_mult: 0.0
  }
  scale_param {
    bias_term: true
  }
}
layer {
  name: "conv5_1/incep/2_1/relu"
  type: "ReLU"
  bottom: "conv5_1/incep/2_1"
  top: "conv5_1/incep/2_1"
}
layer {
  name: "conv5_1/incep/pool"
  type: "Pooling"
  bottom: "conv5_1/incep/pre"
  top: "conv5_1/incep/pool"
  pooling_param {
    pool: MAX
    kernel_size: 3
    stride: 2
    pad: 0
  }
}
layer {
  name: "conv5_1/incep/poolproj/conv"
  type: "Convolution"
  bottom: "conv5_1/incep/pool"
  top: "Convolution2"
  param {
    lr_mult: 0.10000000149
    decay_mult: 0.10000000149
  }
  convolution_param {
    num_output: 128
    bias_term: false
    weight_filler {
      type: "xavier"
    }
    pad_h: 0
    pad_w: 0
    kernel_h: 1
    kernel_w: 1
    stride_h: 1
    stride_w: 1
  }
}
layer {
  name: "conv5_1/incep/poolproj/bn"
  type: "BatchNorm"
  bottom: "Convolution2"
  top: "Convolution2"
  param {
    lr_mult: 0.0
  }
  param {
    lr_mult: 0.0
  }
  param {
    lr_mult: 0.0
  }
  batch_norm_param {
    use_global_stats: true
  }
}
layer {
  name: "conv5_1/incep/poolproj/bn_scale"
  type: "Scale"
  bottom: "Convolution2"
  top: "Convolution2"
  param {
    lr_mult: 0.10000000149
    decay_mult: 0.0
  }
  param {
    lr_mult: 0.10000000149
    decay_mult: 0.0
  }
  scale_param {
    bias_term: true
  }
}
layer {
  name: "conv5_1/incep/poolproj/relu"
  type: "ReLU"
  bottom: "Convolution2"
  top: "Convolution2"
}
layer {
  name: "conv5_1/incep"
  type: "Concat"
  bottom: "conv5_1/incep/0"
  bottom: "conv5_1/incep/1_0"
  bottom: "conv5_1/incep/2_1"
  bottom: "Convolution2"
  top: "conv5_1/incep"
}
layer {
  name: "conv5_1/out/conv"
  type: "Convolution"
  bottom: "conv5_1/incep"
  top: "conv5_1/out"
  param {
    lr_mult: 0.10000000149
    decay_mult: 0.10000000149
  }
  param {
    lr_mult: 0.20000000298
    decay_mult: 0.0
  }
  convolution_param {
    num_output: 384
    weight_filler {
      type: "xavier"
    }
    pad_h: 0
    pad_w: 0
    kernel_h: 1
    kernel_w: 1
    stride_h: 1
    stride_w: 1
  }
}
layer {
  name: "conv5_1/proj"
  type: "Convolution"
  bottom: "conv4_4"
  top: "conv5_1/proj"
  param {
    lr_mult: 0.10000000149
    decay_mult: 0.10000000149
  }
  param {
    lr_mult: 0.20000000298
    decay_mult: 0.0
  }
  convolution_param {
    num_output: 384
    weight_filler {
      type: "xavier"
    }
    pad_h: 0
    pad_w: 0
    kernel_h: 1
    kernel_w: 1
    stride_h: 2
    stride_w: 2
  }
}
layer {
  name: "conv5_1"
  type: "Eltwise"
  bottom: "conv5_1/out"
  bottom: "conv5_1/proj"
  top: "conv5_1"
  eltwise_param {
    operation: SUM
    coeff: 1.0
    coeff: 1.0
  }
}
layer {
  name: "conv5_2/incep/bn"
  type: "BatchNorm"
  bottom: "conv5_1"
  top: "conv5_2/incep/pre"
  param {
    lr_mult: 0.0
  }
  param {
    lr_mult: 0.0
  }
  param {
    lr_mult: 0.0
  }
  batch_norm_param {
    use_global_stats: true
  }
}
layer {
  name: "conv5_2/incep/bn_scale"
  type: "Scale"
  bottom: "conv5_2/incep/pre"
  top: "conv5_2/incep/pre"
  param {
    lr_mult: 0.10000000149
    decay_mult: 0.0
  }
  param {
    lr_mult: 0.10000000149
    decay_mult: 0.0
  }
  scale_param {
    bias_term: true
  }
}
layer {
  name: "conv5_2/incep/relu"
  type: "ReLU"
  bottom: "conv5_2/incep/pre"
  top: "conv5_2/incep/pre"
}
layer {
  name: "conv5_2/incep/0/conv"
  type: "Convolution"
  bottom: "conv5_2/incep/pre"
  top: "conv5_2/incep/0"
  param {
    lr_mult: 0.10000000149
    decay_mult: 0.10000000149
  }
  convolution_param {
    num_output: 64
    bias_term: false
    weight_filler {
      type: "xavier"
    }
    pad_h: 0
    pad_w: 0
    kernel_h: 1
    kernel_w: 1
    stride_h: 1
    stride_w: 1
  }
}
layer {
  name: "conv5_2/incep/0/bn"
  type: "BatchNorm"
  bottom: "conv5_2/incep/0"
  top: "conv5_2/incep/0"
  param {
    lr_mult: 0.0
  }
  param {
    lr_mult: 0.0
  }
  param {
    lr_mult: 0.0
  }
  batch_norm_param {
    use_global_stats: true
  }
}
layer {
  name: "conv5_2/incep/0/bn_scale"
  type: "Scale"
  bottom: "conv5_2/incep/0"
  top: "conv5_2/incep/0"
  param {
    lr_mult: 0.10000000149
    decay_mult: 0.0
  }
  param {
    lr_mult: 0.10000000149
    decay_mult: 0.0
  }
  scale_param {
    bias_term: true
  }
}
layer {
  name: "conv5_2/incep/0/relu"
  type: "ReLU"
  bottom: "conv5_2/incep/0"
  top: "conv5_2/incep/0"
}
layer {
  name: "conv5_2/incep/1_reduce/conv"
  type: "Convolution"
  bottom: "conv5_2/incep/pre"
  top: "conv5_2/incep/1_reduce"
  param {
    lr_mult: 0.10000000149
    decay_mult: 0.10000000149
  }
  convolution_param {
    num_output: 96
    bias_term: false
    weight_filler {
      type: "xavier"
    }
    pad_h: 0
    pad_w: 0
    kernel_h: 1
    kernel_w: 1
    stride_h: 1
    stride_w: 1
  }
}
layer {
  name: "conv5_2/incep/1_reduce/bn"
  type: "BatchNorm"
  bottom: "conv5_2/incep/1_reduce"
  top: "conv5_2/incep/1_reduce"
  param {
    lr_mult: 0.0
  }
  param {
    lr_mult: 0.0
  }
  param {
    lr_mult: 0.0
  }
  batch_norm_param {
    use_global_stats: true
  }
}
layer {
  name: "conv5_2/incep/1_reduce/bn_scale"
  type: "Scale"
  bottom: "conv5_2/incep/1_reduce"
  top: "conv5_2/incep/1_reduce"
  param {
    lr_mult: 0.10000000149
    decay_mult: 0.0
  }
  param {
    lr_mult: 0.10000000149
    decay_mult: 0.0
  }
  scale_param {
    bias_term: true
  }
}
layer {
  name: "conv5_2/incep/1_reduce/relu"
  type: "ReLU"
  bottom: "conv5_2/incep/1_reduce"
  top: "conv5_2/incep/1_reduce"
}
layer {
  name: "conv5_2/incep/1_0/conv"
  type: "Convolution"
  bottom: "conv5_2/incep/1_reduce"
  top: "conv5_2/incep/1_0"
  param {
    lr_mult: 0.10000000149
    decay_mult: 0.10000000149
  }
  convolution_param {
    num_output: 192
    bias_term: false
    weight_filler {
      type: "xavier"
    }
    pad_h: 1
    pad_w: 1
    kernel_h: 3
    kernel_w: 3
    stride_h: 1
    stride_w: 1
  }
}
layer {
  name: "conv5_2/incep/1_0/bn"
  type: "BatchNorm"
  bottom: "conv5_2/incep/1_0"
  top: "conv5_2/incep/1_0"
  param {
    lr_mult: 0.0
  }
  param {
    lr_mult: 0.0
  }
  param {
    lr_mult: 0.0
  }
  batch_norm_param {
    use_global_stats: true
  }
}
layer {
  name: "conv5_2/incep/1_0/bn_scale"
  type: "Scale"
  bottom: "conv5_2/incep/1_0"
  top: "conv5_2/incep/1_0"
  param {
    lr_mult: 0.10000000149
    decay_mult: 0.0
  }
  param {
    lr_mult: 0.10000000149
    decay_mult: 0.0
  }
  scale_param {
    bias_term: true
  }
}
layer {
  name: "conv5_2/incep/1_0/relu"
  type: "ReLU"
  bottom: "conv5_2/incep/1_0"
  top: "conv5_2/incep/1_0"
}
layer {
  name: "conv5_2/incep/2_reduce/conv"
  type: "Convolution"
  bottom: "conv5_2/incep/pre"
  top: "conv5_2/incep/2_reduce"
  param {
    lr_mult: 0.10000000149
    decay_mult: 0.10000000149
  }
  convolution_param {
    num_output: 32
    bias_term: false
    weight_filler {
      type: "xavier"
    }
    pad_h: 0
    pad_w: 0
    kernel_h: 1
    kernel_w: 1
    stride_h: 1
    stride_w: 1
  }
}
layer {
  name: "conv5_2/incep/2_reduce/bn"
  type: "BatchNorm"
  bottom: "conv5_2/incep/2_reduce"
  top: "conv5_2/incep/2_reduce"
  param {
    lr_mult: 0.0
  }
  param {
    lr_mult: 0.0
  }
  param {
    lr_mult: 0.0
  }
  batch_norm_param {
    use_global_stats: true
  }
}
layer {
  name: "conv5_2/incep/2_reduce/bn_scale"
  type: "Scale"
  bottom: "conv5_2/incep/2_reduce"
  top: "conv5_2/incep/2_reduce"
  param {
    lr_mult: 0.10000000149
    decay_mult: 0.0
  }
  param {
    lr_mult: 0.10000000149
    decay_mult: 0.0
  }
  scale_param {
    bias_term: true
  }
}
layer {
  name: "conv5_2/incep/2_reduce/relu"
  type: "ReLU"
  bottom: "conv5_2/incep/2_reduce"
  top: "conv5_2/incep/2_reduce"
}
layer {
  name: "conv5_2/incep/2_0/conv"
  type: "Convolution"
  bottom: "conv5_2/incep/2_reduce"
  top: "conv5_2/incep/2_0"
  param {
    lr_mult: 0.10000000149
    decay_mult: 0.10000000149
  }
  convolution_param {
    num_output: 64
    bias_term: false
    weight_filler {
      type: "xavier"
    }
    pad_h: 1
    pad_w: 1
    kernel_h: 3
    kernel_w: 3
    stride_h: 1
    stride_w: 1
  }
}
layer {
  name: "conv5_2/incep/2_0/bn"
  type: "BatchNorm"
  bottom: "conv5_2/incep/2_0"
  top: "conv5_2/incep/2_0"
  param {
    lr_mult: 0.0
  }
  param {
    lr_mult: 0.0
  }
  param {
    lr_mult: 0.0
  }
  batch_norm_param {
    use_global_stats: true
  }
}
layer {
  name: "conv5_2/incep/2_0/bn_scale"
  type: "Scale"
  bottom: "conv5_2/incep/2_0"
  top: "conv5_2/incep/2_0"
  param {
    lr_mult: 0.10000000149
    decay_mult: 0.0
  }
  param {
    lr_mult: 0.10000000149
    decay_mult: 0.0
  }
  scale_param {
    bias_term: true
  }
}
layer {
  name: "conv5_2/incep/2_0/relu"
  type: "ReLU"
  bottom: "conv5_2/incep/2_0"
  top: "conv5_2/incep/2_0"
}
layer {
  name: "conv5_2/incep/2_1/conv"
  type: "Convolution"
  bottom: "conv5_2/incep/2_0"
  top: "conv5_2/incep/2_1"
  param {
    lr_mult: 0.10000000149
    decay_mult: 0.10000000149
  }
  convolution_param {
    num_output: 64
    bias_term: false
    weight_filler {
      type: "xavier"
    }
    pad_h: 1
    pad_w: 1
    kernel_h: 3
    kernel_w: 3
    stride_h: 1
    stride_w: 1
  }
}
layer {
  name: "conv5_2/incep/2_1/bn"
  type: "BatchNorm"
  bottom: "conv5_2/incep/2_1"
  top: "conv5_2/incep/2_1"
  param {
    lr_mult: 0.0
  }
  param {
    lr_mult: 0.0
  }
  param {
    lr_mult: 0.0
  }
  batch_norm_param {
    use_global_stats: true
  }
}
layer {
  name: "conv5_2/incep/2_1/bn_scale"
  type: "Scale"
  bottom: "conv5_2/incep/2_1"
  top: "conv5_2/incep/2_1"
  param {
    lr_mult: 0.10000000149
    decay_mult: 0.0
  }
  param {
    lr_mult: 0.10000000149
    decay_mult: 0.0
  }
  scale_param {
    bias_term: true
  }
}
layer {
  name: "conv5_2/incep/2_1/relu"
  type: "ReLU"
  bottom: "conv5_2/incep/2_1"
  top: "conv5_2/incep/2_1"
}
layer {
  name: "conv5_2/incep"
  type: "Concat"
  bottom: "conv5_2/incep/0"
  bottom: "conv5_2/incep/1_0"
  bottom: "conv5_2/incep/2_1"
  top: "conv5_2/incep"
}
layer {
  name: "conv5_2/out/conv"
  type: "Convolution"
  bottom: "conv5_2/incep"
  top: "conv5_2/out"
  param {
    lr_mult: 0.10000000149
    decay_mult: 0.10000000149
  }
  param {
    lr_mult: 0.20000000298
    decay_mult: 0.0
  }
  convolution_param {
    num_output: 384
    weight_filler {
      type: "xavier"
    }
    pad_h: 0
    pad_w: 0
    kernel_h: 1
    kernel_w: 1
    stride_h: 1
    stride_w: 1
  }
}
layer {
  name: "conv5_2/input"
  type: "Power"
  bottom: "conv5_1"
  top: "conv5_2/input"
}
layer {
  name: "conv5_2"
  type: "Eltwise"
  bottom: "conv5_2/out"
  bottom: "conv5_2/input"
  top: "conv5_2"
  eltwise_param {
    operation: SUM
    coeff: 1.0
    coeff: 1.0
  }
}
layer {
  name: "conv5_3/incep/bn"
  type: "BatchNorm"
  bottom: "conv5_2"
  top: "conv5_3/incep/pre"
  param {
    lr_mult: 0.0
  }
  param {
    lr_mult: 0.0
  }
  param {
    lr_mult: 0.0
  }
  batch_norm_param {
    use_global_stats: true
  }
}
layer {
  name: "conv5_3/incep/bn_scale"
  type: "Scale"
  bottom: "conv5_3/incep/pre"
  top: "conv5_3/incep/pre"
  param {
    lr_mult: 0.10000000149
    decay_mult: 0.0
  }
  param {
    lr_mult: 0.10000000149
    decay_mult: 0.0
  }
  scale_param {
    bias_term: true
  }
}
layer {
  name: "conv5_3/incep/relu"
  type: "ReLU"
  bottom: "conv5_3/incep/pre"
  top: "conv5_3/incep/pre"
}
layer {
  name: "conv5_3/incep/0/conv"
  type: "Convolution"
  bottom: "conv5_3/incep/pre"
  top: "conv5_3/incep/0"
  param {
    lr_mult: 0.10000000149
    decay_mult: 0.10000000149
  }
  convolution_param {
    num_output: 64
    bias_term: false
    weight_filler {
      type: "xavier"
    }
    pad_h: 0
    pad_w: 0
    kernel_h: 1
    kernel_w: 1
    stride_h: 1
    stride_w: 1
  }
}
layer {
  name: "conv5_3/incep/0/bn"
  type: "BatchNorm"
  bottom: "conv5_3/incep/0"
  top: "conv5_3/incep/0"
  param {
    lr_mult: 0.0
  }
  param {
    lr_mult: 0.0
  }
  param {
    lr_mult: 0.0
  }
  batch_norm_param {
    use_global_stats: true
  }
}
layer {
  name: "conv5_3/incep/0/bn_scale"
  type: "Scale"
  bottom: "conv5_3/incep/0"
  top: "conv5_3/incep/0"
  param {
    lr_mult: 0.10000000149
    decay_mult: 0.0
  }
  param {
    lr_mult: 0.10000000149
    decay_mult: 0.0
  }
  scale_param {
    bias_term: true
  }
}
layer {
  name: "conv5_3/incep/0/relu"
  type: "ReLU"
  bottom: "conv5_3/incep/0"
  top: "conv5_3/incep/0"
}
layer {
  name: "conv5_3/incep/1_reduce/conv"
  type: "Convolution"
  bottom: "conv5_3/incep/pre"
  top: "conv5_3/incep/1_reduce"
  param {
    lr_mult: 0.10000000149
    decay_mult: 0.10000000149
  }
  convolution_param {
    num_output: 96
    bias_term: false
    weight_filler {
      type: "xavier"
    }
    pad_h: 0
    pad_w: 0
    kernel_h: 1
    kernel_w: 1
    stride_h: 1
    stride_w: 1
  }
}
layer {
  name: "conv5_3/incep/1_reduce/bn"
  type: "BatchNorm"
  bottom: "conv5_3/incep/1_reduce"
  top: "conv5_3/incep/1_reduce"
  param {
    lr_mult: 0.0
  }
  param {
    lr_mult: 0.0
  }
  param {
    lr_mult: 0.0
  }
  batch_norm_param {
    use_global_stats: true
  }
}
layer {
  name: "conv5_3/incep/1_reduce/bn_scale"
  type: "Scale"
  bottom: "conv5_3/incep/1_reduce"
  top: "conv5_3/incep/1_reduce"
  param {
    lr_mult: 0.10000000149
    decay_mult: 0.0
  }
  param {
    lr_mult: 0.10000000149
    decay_mult: 0.0
  }
  scale_param {
    bias_term: true
  }
}
layer {
  name: "conv5_3/incep/1_reduce/relu"
  type: "ReLU"
  bottom: "conv5_3/incep/1_reduce"
  top: "conv5_3/incep/1_reduce"
}
layer {
  name: "conv5_3/incep/1_0/conv"
  type: "Convolution"
  bottom: "conv5_3/incep/1_reduce"
  top: "conv5_3/incep/1_0"
  param {
    lr_mult: 0.10000000149
    decay_mult: 0.10000000149
  }
  convolution_param {
    num_output: 192
    bias_term: false
    weight_filler {
      type: "xavier"
    }
    pad_h: 1
    pad_w: 1
    kernel_h: 3
    kernel_w: 3
    stride_h: 1
    stride_w: 1
  }
}
layer {
  name: "conv5_3/incep/1_0/bn"
  type: "BatchNorm"
  bottom: "conv5_3/incep/1_0"
  top: "conv5_3/incep/1_0"
  param {
    lr_mult: 0.0
  }
  param {
    lr_mult: 0.0
  }
  param {
    lr_mult: 0.0
  }
  batch_norm_param {
    use_global_stats: true
  }
}
layer {
  name: "conv5_3/incep/1_0/bn_scale"
  type: "Scale"
  bottom: "conv5_3/incep/1_0"
  top: "conv5_3/incep/1_0"
  param {
    lr_mult: 0.10000000149
    decay_mult: 0.0
  }
  param {
    lr_mult: 0.10000000149
    decay_mult: 0.0
  }
  scale_param {
    bias_term: true
  }
}
layer {
  name: "conv5_3/incep/1_0/relu"
  type: "ReLU"
  bottom: "conv5_3/incep/1_0"
  top: "conv5_3/incep/1_0"
}
layer {
  name: "conv5_3/incep/2_reduce/conv"
  type: "Convolution"
  bottom: "conv5_3/incep/pre"
  top: "conv5_3/incep/2_reduce"
  param {
    lr_mult: 0.10000000149
    decay_mult: 0.10000000149
  }
  convolution_param {
    num_output: 32
    bias_term: false
    weight_filler {
      type: "xavier"
    }
    pad_h: 0
    pad_w: 0
    kernel_h: 1
    kernel_w: 1
    stride_h: 1
    stride_w: 1
  }
}
layer {
  name: "conv5_3/incep/2_reduce/bn"
  type: "BatchNorm"
  bottom: "conv5_3/incep/2_reduce"
  top: "conv5_3/incep/2_reduce"
  param {
    lr_mult: 0.0
  }
  param {
    lr_mult: 0.0
  }
  param {
    lr_mult: 0.0
  }
  batch_norm_param {
    use_global_stats: true
  }
}
layer {
  name: "conv5_3/incep/2_reduce/bn_scale"
  type: "Scale"
  bottom: "conv5_3/incep/2_reduce"
  top: "conv5_3/incep/2_reduce"
  param {
    lr_mult: 0.10000000149
    decay_mult: 0.0
  }
  param {
    lr_mult: 0.10000000149
    decay_mult: 0.0
  }
  scale_param {
    bias_term: true
  }
}
layer {
  name: "conv5_3/incep/2_reduce/relu"
  type: "ReLU"
  bottom: "conv5_3/incep/2_reduce"
  top: "conv5_3/incep/2_reduce"
}
layer {
  name: "conv5_3/incep/2_0/conv"
  type: "Convolution"
  bottom: "conv5_3/incep/2_reduce"
  top: "conv5_3/incep/2_0"
  param {
    lr_mult: 0.10000000149
    decay_mult: 0.10000000149
  }
  convolution_param {
    num_output: 64
    bias_term: false
    weight_filler {
      type: "xavier"
    }
    pad_h: 1
    pad_w: 1
    kernel_h: 3
    kernel_w: 3
    stride_h: 1
    stride_w: 1
  }
}
layer {
  name: "conv5_3/incep/2_0/bn"
  type: "BatchNorm"
  bottom: "conv5_3/incep/2_0"
  top: "conv5_3/incep/2_0"
  param {
    lr_mult: 0.0
  }
  param {
    lr_mult: 0.0
  }
  param {
    lr_mult: 0.0
  }
  batch_norm_param {
    use_global_stats: true
  }
}
layer {
  name: "conv5_3/incep/2_0/bn_scale"
  type: "Scale"
  bottom: "conv5_3/incep/2_0"
  top: "conv5_3/incep/2_0"
  param {
    lr_mult: 0.10000000149
    decay_mult: 0.0
  }
  param {
    lr_mult: 0.10000000149
    decay_mult: 0.0
  }
  scale_param {
    bias_term: true
  }
}
layer {
  name: "conv5_3/incep/2_0/relu"
  type: "ReLU"
  bottom: "conv5_3/incep/2_0"
  top: "conv5_3/incep/2_0"
}
layer {
  name: "conv5_3/incep/2_1/conv"
  type: "Convolution"
  bottom: "conv5_3/incep/2_0"
  top: "conv5_3/incep/2_1"
  param {
    lr_mult: 0.10000000149
    decay_mult: 0.10000000149
  }
  convolution_param {
    num_output: 64
    bias_term: false
    weight_filler {
      type: "xavier"
    }
    pad_h: 1
    pad_w: 1
    kernel_h: 3
    kernel_w: 3
    stride_h: 1
    stride_w: 1
  }
}
layer {
  name: "conv5_3/incep/2_1/bn"
  type: "BatchNorm"
  bottom: "conv5_3/incep/2_1"
  top: "conv5_3/incep/2_1"
  param {
    lr_mult: 0.0
  }
  param {
    lr_mult: 0.0
  }
  param {
    lr_mult: 0.0
  }
  batch_norm_param {
    use_global_stats: true
  }
}
layer {
  name: "conv5_3/incep/2_1/bn_scale"
  type: "Scale"
  bottom: "conv5_3/incep/2_1"
  top: "conv5_3/incep/2_1"
  param {
    lr_mult: 0.10000000149
    decay_mult: 0.0
  }
  param {
    lr_mult: 0.10000000149
    decay_mult: 0.0
  }
  scale_param {
    bias_term: true
  }
}
layer {
  name: "conv5_3/incep/2_1/relu"
  type: "ReLU"
  bottom: "conv5_3/incep/2_1"
  top: "conv5_3/incep/2_1"
}
layer {
  name: "conv5_3/incep"
  type: "Concat"
  bottom: "conv5_3/incep/0"
  bottom: "conv5_3/incep/1_0"
  bottom: "conv5_3/incep/2_1"
  top: "conv5_3/incep"
}
layer {
  name: "conv5_3/out/conv"
  type: "Convolution"
  bottom: "conv5_3/incep"
  top: "conv5_3/out"
  param {
    lr_mult: 0.10000000149
    decay_mult: 0.10000000149
  }
  param {
    lr_mult: 0.20000000298
    decay_mult: 0.0
  }
  convolution_param {
    num_output: 384
    weight_filler {
      type: "xavier"
    }
    pad_h: 0
    pad_w: 0
    kernel_h: 1
    kernel_w: 1
    stride_h: 1
    stride_w: 1
  }
}
layer {
  name: "conv5_3/input"
  type: "Power"
  bottom: "conv5_2"
  top: "conv5_3/input"
}
layer {
  name: "conv5_3"
  type: "Eltwise"
  bottom: "conv5_3/out"
  bottom: "conv5_3/input"
  top: "conv5_3"
  eltwise_param {
    operation: SUM
    coeff: 1.0
    coeff: 1.0
  }
}
layer {
  name: "conv5_4/incep/bn"
  type: "BatchNorm"
  bottom: "conv5_3"
  top: "conv5_4/incep/pre"
  param {
    lr_mult: 0.0
  }
  param {
    lr_mult: 0.0
  }
  param {
    lr_mult: 0.0
  }
  batch_norm_param {
    use_global_stats: true
  }
}
layer {
  name: "conv5_4/incep/bn_scale"
  type: "Scale"
  bottom: "conv5_4/incep/pre"
  top: "conv5_4/incep/pre"
  param {
    lr_mult: 0.10000000149
    decay_mult: 0.0
  }
  param {
    lr_mult: 0.10000000149
    decay_mult: 0.0
  }
  scale_param {
    bias_term: true
  }
}
layer {
  name: "conv5_4/incep/relu"
  type: "ReLU"
  bottom: "conv5_4/incep/pre"
  top: "conv5_4/incep/pre"
}
layer {
  name: "conv5_4/incep/0/conv"
  type: "Convolution"
  bottom: "conv5_4/incep/pre"
  top: "conv5_4/incep/0"
  param {
    lr_mult: 0.10000000149
    decay_mult: 0.10000000149
  }
  convolution_param {
    num_output: 64
    bias_term: false
    weight_filler {
      type: "xavier"
    }
    pad_h: 0
    pad_w: 0
    kernel_h: 1
    kernel_w: 1
    stride_h: 1
    stride_w: 1
  }
}
layer {
  name: "conv5_4/incep/0/bn"
  type: "BatchNorm"
  bottom: "conv5_4/incep/0"
  top: "conv5_4/incep/0"
  param {
    lr_mult: 0.0
  }
  param {
    lr_mult: 0.0
  }
  param {
    lr_mult: 0.0
  }
  batch_norm_param {
    use_global_stats: true
  }
}
layer {
  name: "conv5_4/incep/0/bn_scale"
  type: "Scale"
  bottom: "conv5_4/incep/0"
  top: "conv5_4/incep/0"
  param {
    lr_mult: 0.10000000149
    decay_mult: 0.0
  }
  param {
    lr_mult: 0.10000000149
    decay_mult: 0.0
  }
  scale_param {
    bias_term: true
  }
}
layer {
  name: "conv5_4/incep/0/relu"
  type: "ReLU"
  bottom: "conv5_4/incep/0"
  top: "conv5_4/incep/0"
}
layer {
  name: "conv5_4/incep/1_reduce/conv"
  type: "Convolution"
  bottom: "conv5_4/incep/pre"
  top: "conv5_4/incep/1_reduce"
  param {
    lr_mult: 0.10000000149
    decay_mult: 0.10000000149
  }
  convolution_param {
    num_output: 96
    bias_term: false
    weight_filler {
      type: "xavier"
    }
    pad_h: 0
    pad_w: 0
    kernel_h: 1
    kernel_w: 1
    stride_h: 1
    stride_w: 1
  }
}
layer {
  name: "conv5_4/incep/1_reduce/bn"
  type: "BatchNorm"
  bottom: "conv5_4/incep/1_reduce"
  top: "conv5_4/incep/1_reduce"
  param {
    lr_mult: 0.0
  }
  param {
    lr_mult: 0.0
  }
  param {
    lr_mult: 0.0
  }
  batch_norm_param {
    use_global_stats: true
  }
}
layer {
  name: "conv5_4/incep/1_reduce/bn_scale"
  type: "Scale"
  bottom: "conv5_4/incep/1_reduce"
  top: "conv5_4/incep/1_reduce"
  param {
    lr_mult: 0.10000000149
    decay_mult: 0.0
  }
  param {
    lr_mult: 0.10000000149
    decay_mult: 0.0
  }
  scale_param {
    bias_term: true
  }
}
layer {
  name: "conv5_4/incep/1_reduce/relu"
  type: "ReLU"
  bottom: "conv5_4/incep/1_reduce"
  top: "conv5_4/incep/1_reduce"
}
layer {
  name: "conv5_4/incep/1_0/conv"
  type: "Convolution"
  bottom: "conv5_4/incep/1_reduce"
  top: "conv5_4/incep/1_0"
  param {
    lr_mult: 0.10000000149
    decay_mult: 0.10000000149
  }
  convolution_param {
    num_output: 192
    bias_term: false
    weight_filler {
      type: "xavier"
    }
    pad_h: 1
    pad_w: 1
    kernel_h: 3
    kernel_w: 3
    stride_h: 1
    stride_w: 1
  }
}
layer {
  name: "conv5_4/incep/1_0/bn"
  type: "BatchNorm"
  bottom: "conv5_4/incep/1_0"
  top: "conv5_4/incep/1_0"
  param {
    lr_mult: 0.0
  }
  param {
    lr_mult: 0.0
  }
  param {
    lr_mult: 0.0
  }
  batch_norm_param {
    use_global_stats: true
  }
}
layer {
  name: "conv5_4/incep/1_0/bn_scale"
  type: "Scale"
  bottom: "conv5_4/incep/1_0"
  top: "conv5_4/incep/1_0"
  param {
    lr_mult: 0.10000000149
    decay_mult: 0.0
  }
  param {
    lr_mult: 0.10000000149
    decay_mult: 0.0
  }
  scale_param {
    bias_term: true
  }
}
layer {
  name: "conv5_4/incep/1_0/relu"
  type: "ReLU"
  bottom: "conv5_4/incep/1_0"
  top: "conv5_4/incep/1_0"
}
layer {
  name: "conv5_4/incep/2_reduce/conv"
  type: "Convolution"
  bottom: "conv5_4/incep/pre"
  top: "conv5_4/incep/2_reduce"
  param {
    lr_mult: 0.10000000149
    decay_mult: 0.10000000149
  }
  convolution_param {
    num_output: 32
    bias_term: false
    weight_filler {
      type: "xavier"
    }
    pad_h: 0
    pad_w: 0
    kernel_h: 1
    kernel_w: 1
    stride_h: 1
    stride_w: 1
  }
}
layer {
  name: "conv5_4/incep/2_reduce/bn"
  type: "BatchNorm"
  bottom: "conv5_4/incep/2_reduce"
  top: "conv5_4/incep/2_reduce"
  param {
    lr_mult: 0.0
  }
  param {
    lr_mult: 0.0
  }
  param {
    lr_mult: 0.0
  }
  batch_norm_param {
    use_global_stats: true
  }
}
layer {
  name: "conv5_4/incep/2_reduce/bn_scale"
  type: "Scale"
  bottom: "conv5_4/incep/2_reduce"
  top: "conv5_4/incep/2_reduce"
  param {
    lr_mult: 0.10000000149
    decay_mult: 0.0
  }
  param {
    lr_mult: 0.10000000149
    decay_mult: 0.0
  }
  scale_param {
    bias_term: true
  }
}
layer {
  name: "conv5_4/incep/2_reduce/relu"
  type: "ReLU"
  bottom: "conv5_4/incep/2_reduce"
  top: "conv5_4/incep/2_reduce"
}
layer {
  name: "conv5_4/incep/2_0/conv"
  type: "Convolution"
  bottom: "conv5_4/incep/2_reduce"
  top: "conv5_4/incep/2_0"
  param {
    lr_mult: 0.10000000149
    decay_mult: 0.10000000149
  }
  convolution_param {
    num_output: 64
    bias_term: false
    weight_filler {
      type: "xavier"
    }
    pad_h: 1
    pad_w: 1
    kernel_h: 3
    kernel_w: 3
    stride_h: 1
    stride_w: 1
  }
}
layer {
  name: "conv5_4/incep/2_0/bn"
  type: "BatchNorm"
  bottom: "conv5_4/incep/2_0"
  top: "conv5_4/incep/2_0"
  param {
    lr_mult: 0.0
  }
  param {
    lr_mult: 0.0
  }
  param {
    lr_mult: 0.0
  }
  batch_norm_param {
    use_global_stats: true
  }
}
layer {
  name: "conv5_4/incep/2_0/bn_scale"
  type: "Scale"
  bottom: "conv5_4/incep/2_0"
  top: "conv5_4/incep/2_0"
  param {
    lr_mult: 0.10000000149
    decay_mult: 0.0
  }
  param {
    lr_mult: 0.10000000149
    decay_mult: 0.0
  }
  scale_param {
    bias_term: true
  }
}
layer {
  name: "conv5_4/incep/2_0/relu"
  type: "ReLU"
  bottom: "conv5_4/incep/2_0"
  top: "conv5_4/incep/2_0"
}
layer {
  name: "conv5_4/incep/2_1/conv"
  type: "Convolution"
  bottom: "conv5_4/incep/2_0"
  top: "conv5_4/incep/2_1"
  param {
    lr_mult: 0.10000000149
    decay_mult: 0.10000000149
  }
  convolution_param {
    num_output: 64
    bias_term: false
    weight_filler {
      type: "xavier"
    }
    pad_h: 1
    pad_w: 1
    kernel_h: 3
    kernel_w: 3
    stride_h: 1
    stride_w: 1
  }
}
layer {
  name: "conv5_4/incep/2_1/bn"
  type: "BatchNorm"
  bottom: "conv5_4/incep/2_1"
  top: "conv5_4/incep/2_1"
  param {
    lr_mult: 0.0
  }
  param {
    lr_mult: 0.0
  }
  param {
    lr_mult: 0.0
  }
  batch_norm_param {
    use_global_stats: true
  }
}
layer {
  name: "conv5_4/incep/2_1/bn_scale"
  type: "Scale"
  bottom: "conv5_4/incep/2_1"
  top: "conv5_4/incep/2_1"
  param {
    lr_mult: 0.10000000149
    decay_mult: 0.0
  }
  param {
    lr_mult: 0.10000000149
    decay_mult: 0.0
  }
  scale_param {
    bias_term: true
  }
}
layer {
  name: "conv5_4/incep/2_1/relu"
  type: "ReLU"
  bottom: "conv5_4/incep/2_1"
  top: "conv5_4/incep/2_1"
}
layer {
  name: "conv5_4/incep"
  type: "Concat"
  bottom: "conv5_4/incep/0"
  bottom: "conv5_4/incep/1_0"
  bottom: "conv5_4/incep/2_1"
  top: "conv5_4/incep"
}
layer {
  name: "conv5_4/out/conv"
  type: "Convolution"
  bottom: "conv5_4/incep"
  top: "conv5_4/out"
  param {
    lr_mult: 0.10000000149
    decay_mult: 0.10000000149
  }
  convolution_param {
    num_output: 384
    bias_term: false
    weight_filler {
      type: "xavier"
    }
    pad_h: 0
    pad_w: 0
    kernel_h: 1
    kernel_w: 1
    stride_h: 1
    stride_w: 1
  }
}
layer {
  name: "conv5_4/input"
  type: "Power"
  bottom: "conv5_3"
  top: "conv5_4/input"
}
layer {
  name: "conv5_4/out/bn"
  type: "BatchNorm"
  bottom: "conv5_4/out"
  top: "conv5_4/out"
  param {
    lr_mult: 0.0
  }
  param {
    lr_mult: 0.0
  }
  param {
    lr_mult: 0.0
  }
  batch_norm_param {
    use_global_stats: true
  }
}
layer {
  name: "conv5_4/out/bn_scale"
  type: "Scale"
  bottom: "conv5_4/out"
  top: "conv5_4/out"
  param {
    lr_mult: 0.10000000149
    decay_mult: 0.0
  }
  param {
    lr_mult: 0.10000000149
    decay_mult: 0.0
  }
  scale_param {
    bias_term: true
  }
}
layer {
  name: "conv5_4"
  type: "Eltwise"
  bottom: "conv5_4/out"
  bottom: "conv5_4/input"
  top: "conv5_4"
  eltwise_param {
    operation: SUM
    coeff: 1.0
    coeff: 1.0
  }
}
layer {
  name: "conv5_4/last_bn"
  type: "BatchNorm"
  bottom: "conv5_4"
  top: "conv5_4"
  param {
    lr_mult: 0.0
  }
  param {
    lr_mult: 0.0
  }
  param {
    lr_mult: 0.0
  }
  batch_norm_param {
    use_global_stats: true
  }
}
layer {
  name: "conv5_4/last_bn_scale"
  type: "Scale"
  bottom: "conv5_4"
  top: "conv5_4"
  param {
    lr_mult: 0.10000000149
    decay_mult: 0.0
  }
  param {
    lr_mult: 0.10000000149
    decay_mult: 0.0
  }
  scale_param {
    bias_term: true
  }
}
layer {
  name: "conv5_4/last_relu"
  type: "ReLU"
  bottom: "conv5_4"
  top: "conv5_4"
}
layer {
  name: "upsample"
  type: "Deconvolution"
  bottom: "conv5_4"
  top: "upsample"
  param {
    lr_mult: 0.0
    decay_mult: 0.0
  }
  convolution_param {
    num_output: 384
    bias_term: false
    pad: 1
    kernel_size: 4
    group: 384
    stride: 2
    weight_filler {
      type: "bilinear"
    }
  }
}
layer {
  name: "downsample"
  type: "Pooling"
  bottom: "conv3_4"
  top: "downsample"
  pooling_param {
    pool: MAX
    kernel_size: 3
    stride: 2
    pad: 0
  }
}
layer {
  name: "concat"
  type: "Concat"
  bottom: "upsample"
  bottom: "downsample"
  bottom: "conv4_4"
  top: "concat"
  concat_param {
    axis: 1
  }
}
layer {
  name: "convf_rpn"
  type: "Convolution"
  bottom: "concat"
  top: "convf_rpn"
  param {
    lr_mult: 1.0
    decay_mult: 1.0
  }
  param {
    lr_mult: 2.0
    decay_mult: 0.0
  }
  convolution_param {
    num_output: 128
    pad: 0
    kernel_size: 1
    stride: 1
    weight_filler {
      type: "xavier"
      std: 0.10000000149
    }
    bias_filler {
      type: "constant"
      value: 0.10000000149
    }
  }
}
layer {
  name: "reluf_rpn"
  type: "ReLU"
  bottom: "convf_rpn"
  top: "convf_rpn"
}
layer {
  name: "convf_2"
  type: "Convolution"
  bottom: "concat"
  top: "convf_2"
  param {
    lr_mult: 1.0
    decay_mult: 1.0
  }
  param {
    lr_mult: 2.0
    decay_mult: 0.0
  }
  convolution_param {
    num_output: 384
    pad: 0
    kernel_size: 1
    stride: 1
    weight_filler {
      type: "xavier"
      std: 0.10000000149
    }
    bias_filler {
      type: "constant"
      value: 0.10000000149
    }
  }
}
layer {
  name: "reluf_2"
  type: "ReLU"
  bottom: "convf_2"
  top: "convf_2"
}
layer {
  name: "concat_convf"
  type: "Concat"
  bottom: "convf_rpn"
  bottom: "convf_2"
  top: "convf"
  concat_param {
    axis: 1
  }
}
layer {
  name: "roi_pool5_readonly"
  type: "ROIPooling"
  bottom: "convf"
  bottom: "rois"
  top: "roi_pool5_readonly"
  propagate_down: false
  propagate_down: false
  roi_pooling_param {
    pooled_h: 6
    pooled_w: 6
    spatial_scale: 0.0625
  }
}
layer {
  name: "fc6_readonly"
  type: "InnerProduct"
  bottom: "roi_pool5_readonly"
  top: "fc6_readonly"
  param {
    name: "fc6_w"
    lr_mult: 1.0
    decay_mult: 1.0
  }
  param {
    name: "fc6_b"
    lr_mult: 2.0
    decay_mult: 0.0
  }
  propagate_down: false
  inner_product_param {
    num_output: 4096
    weight_filler {
      type: "xavier"
    }
    bias_filler {
      type: "constant"
      value: 0.10000000149
    }
  }
}
layer {
  name: "fc6/bn_readonly"
  type: "BatchNorm"
  bottom: "fc6_readonly"
  top: "fc6_readonly"
  param {
    name: "fc6_mean"
    lr_mult: 0.0
  }
  param {
    name: "fc6_var"
    lr_mult: 0.0
  }
  param {
    name: "fc6_mov"
    lr_mult: 0.0
  }
  propagate_down: false
  batch_norm_param {
    use_global_stats: true
  }
}
layer {
  name: "fc6/scale_readonly"
  type: "Scale"
  bottom: "fc6_readonly"
  top: "fc6_readonly"
  param {
    name: "fc6_alpha"
    lr_mult: 1.0
    decay_mult: 0.0
  }
  param {
    name: "fc6_beta"
    lr_mult: 1.0
    decay_mult: 0.0
  }
  propagate_down: false
  scale_param {
    bias_term: true
  }
}
layer {
  name: "fc6/dropout_readonly"
  type: "Dropout"
  bottom: "fc6_readonly"
  top: "fc6_readonly"
  propagate_down: false
  dropout_param {
    dropout_ratio: 0.5
  }
}
layer {
  name: "fc6/relu_readonly"
  type: "ReLU"
  bottom: "fc6_readonly"
  top: "fc6_readonly"
  propagate_down: false
}
layer {
  name: "fc7_readonly"
  type: "InnerProduct"
  bottom: "fc6_readonly"
  top: "fc7_readonly"
  param {
    name: "fc7_w"
    lr_mult: 1.0
    decay_mult: 1.0
  }
  param {
    name: "fc7_b"
    lr_mult: 2.0
    decay_mult: 0.0
  }
  propagate_down: false
  inner_product_param {
    num_output: 4096
    weight_filler {
      type: "xavier"
    }
    bias_filler {
      type: "constant"
      value: 0.10000000149
    }
  }
}
layer {
  name: "fc7/bn_readonly"
  type: "BatchNorm"
  bottom: "fc7_readonly"
  top: "fc7_readonly"
  param {
    name: "fc7_mean"
    lr_mult: 0.0
  }
  param {
    name: "fc7_var"
    lr_mult: 0.0
  }
  param {
    name: "fc7_mov"
    lr_mult: 0.0
  }
  propagate_down: false
  batch_norm_param {
    use_global_stats: true
  }
}
layer {
  name: "fc7/scale_readonly"
  type: "Scale"
  bottom: "fc7_readonly"
  top: "fc7_readonly"
  param {
    name: "fc7_alpha"
    lr_mult: 1.0
    decay_mult: 0.0
  }
  param {
    name: "fc7_beta"
    lr_mult: 1.0
    decay_mult: 0.0
  }
  propagate_down: false
  scale_param {
    bias_term: true
  }
}
layer {
  name: "fc7/dropout_readonly"
  type: "Dropout"
  bottom: "fc7_readonly"
  top: "fc7_readonly"
  propagate_down: false
  dropout_param {
    dropout_ratio: 0.5
  }
}
layer {
  name: "fc7/relu_readonly"
  type: "ReLU"
  bottom: "fc7_readonly"
  top: "fc7_readonly"
  propagate_down: false
}
layer {
  name: "cls_score_readonly"
  type: "InnerProduct"
  bottom: "fc7_readonly"
  top: "cls_score_readonly"
  param {
    name: "cls_score_w"
  }
  param {
    name: "cls_score_b"
  }
  propagate_down: false
  inner_product_param {
    num_output: 6
  }
}
layer {
  name: "bbox_pred_readonly"
  type: "InnerProduct"
  bottom: "fc7_readonly"
  top: "bbox_pred_readonly"
  param {
    name: "bbox_pred_w"
  }
  param {
    name: "bbox_pred_b"
  }
  propagate_down: false
  inner_product_param {
    num_output: 24
  }
}
layer {
  name: "cls_prob_readonly"
  type: "Softmax"
  bottom: "cls_score_readonly"
  top: "cls_prob_readonly"
  propagate_down: false
}
layer {
  name: "rois_hard"
  type: "Python"
  bottom: "cls_prob_readonly"
  bottom: "bbox_pred_readonly"
  bottom: "rois"
  bottom: "labels"
  bottom: "bbox_targets"
  bottom: "bbox_inside_weights"
  bottom: "bbox_outside_weights"
  top: "rois_hard"
  top: "labels_hard"
  top: "bbox_targets_hard"
  top: "bbox_inside_weights_hard"
  top: "bbox_outside_weights_hard"
  propagate_down: false
  propagate_down: false
  propagate_down: false
  propagate_down: false
  propagate_down: false
  propagate_down: false
  propagate_down: false
  python_param {
    module: "caffe.frcnn.ohem_layer.layer"
    layer: "OHEMDataLayer"
    param_str: "num_classes: 6"
  }
}
layer {
  name: "roi_pool_conv5"
  type: "ROIPooling"
  bottom: "convf"
  bottom: "rois_hard"
  top: "roi_pool_conv5"
  roi_pooling_param {
    pooled_h: 6
    pooled_w: 6
    spatial_scale: 0.0625
  }
}
layer {
  name: "fc6"
  type: "InnerProduct"
  bottom: "roi_pool_conv5"
  top: "fc6"
  param {
    name: "fc6_w"
    lr_mult: 1.0
    decay_mult: 1.0
  }
  param {
    name: "fc6_b"
    lr_mult: 2.0
    decay_mult: 0.0
  }
  inner_product_param {
    num_output: 4096
    weight_filler {
      type: "xavier"
    }
    bias_filler {
      type: "constant"
      value: 0.10000000149
    }
  }
}
layer {
  name: "fc6/bn"
  type: "BatchNorm"
  bottom: "fc6"
  top: "fc6"
  param {
    name: "fc6_mean"
    lr_mult: 0.0
  }
  param {
    name: "fc6_var"
    lr_mult: 0.0
  }
  param {
    name: "fc6_mov"
    lr_mult: 0.0
  }
  batch_norm_param {
    use_global_stats: true
  }
}
layer {
  name: "fc6/scale"
  type: "Scale"
  bottom: "fc6"
  top: "fc6"
  param {
    name: "fc6_alpha"
    lr_mult: 1.0
    decay_mult: 0.0
  }
  param {
    name: "fc6_beta"
    lr_mult: 1.0
    decay_mult: 0.0
  }
  scale_param {
    bias_term: true
  }
}
layer {
  name: "fc6/dropout"
  type: "Dropout"
  bottom: "fc6"
  top: "fc6"
  dropout_param {
    dropout_ratio: 0.5
  }
}
layer {
  name: "fc6/relu"
  type: "ReLU"
  bottom: "fc6"
  top: "fc6"
}
layer {
  name: "fc7"
  type: "InnerProduct"
  bottom: "fc6"
  top: "fc7"
  param {
    name: "fc7_w"
    lr_mult: 1.0
    decay_mult: 1.0
  }
  param {
    name: "fc7_b"
    lr_mult: 2.0
    decay_mult: 0.0
  }
  inner_product_param {
    num_output: 4096
    weight_filler {
      type: "xavier"
    }
    bias_filler {
      type: "constant"
      value: 0.10000000149
    }
  }
}
layer {
  name: "fc7/bn"
  type: "BatchNorm"
  bottom: "fc7"
  top: "fc7"
  param {
    name: "fc7_mean"
    lr_mult: 0.0
  }
  param {
    name: "fc7_var"
    lr_mult: 0.0
  }
  param {
    name: "fc7_mov"
    lr_mult: 0.0
  }
  batch_norm_param {
    use_global_stats: true
  }
}
layer {
  name: "fc7/scale"
  type: "Scale"
  bottom: "fc7"
  top: "fc7"
  param {
    name: "fc7_alpha"
    lr_mult: 1.0
    decay_mult: 0.0
  }
  param {
    name: "fc7_beta"
    lr_mult: 1.0
    decay_mult: 0.0
  }
  scale_param {
    bias_term: true
  }
}
layer {
  name: "fc7/dropout"
  type: "Dropout"
  bottom: "fc7"
  top: "fc7"
  dropout_param {
    dropout_ratio: 0.5
  }
}
layer {
  name: "fc7/relu"
  type: "ReLU"
  bottom: "fc7"
  top: "fc7"
}
layer {
  name: "cls_score"
  type: "InnerProduct"
  bottom: "fc7"
  top: "cls_score"
  param {
    lr_mult: 1.0
  }
  param {
    lr_mult: 2.0
  }
  inner_product_param {
    num_output: 6
  }
}
layer {
  name: "bbox_pred"
  type: "InnerProduct"
  bottom: "fc7"
  top: "bbox_pred"
  param {
    lr_mult: 1.0
  }
  param {
    lr_mult: 2.0
  }
  inner_product_param {
    num_output: 24
  }
}
layer {
  name: "loss_cls"
  type: "SoftmaxWithLoss"
  bottom: "cls_score"
  bottom: "labels_hard"
  top: "loss_cls"
  loss_weight: 1.0
  propagate_down: true
  propagate_down: false
  loss_param {
    ignore_label: 1
    normalize: true
  }
}
layer {
  name: "loss_bbox"
  type: "SmoothL1Loss"
  bottom: "bbox_pred"
  bottom: "bbox_targets_hard"
  bottom: "bbox_inside_weights_hard"
  bottom: "bbox_outside_weights_hard"
  top: "loss_bbox"
  loss_weight: 1.0
}
layer {
  name: "rpn_conv1"
  type: "Convolution"
  bottom: "convf_rpn"
  top: "rpn_conv1"
  param {
    lr_mult: 0.0
    decay_mult: 0.0
  }
  param {
    lr_mult: 0.0
    decay_mult: 0.0
  }
  convolution_param {
    num_output: 384
    pad: 1
    kernel_size: 3
    stride: 1
    weight_filler {
      type: "gaussian"
      std: 0.00999999977648
    }
    bias_filler {
      type: "constant"
      value: 0.0
    }
  }
}
layer {
  name: "rpn_relu1"
  type: "ReLU"
  bottom: "rpn_conv1"
  top: "rpn_conv1"
}
layer {
  name: "rpn_cls_score"
  type: "Convolution"
  bottom: "rpn_conv1"
  top: "rpn_cls_score"
  param {
    lr_mult: 0.0
    decay_mult: 0.0
  }
  param {
    lr_mult: 0.0
    decay_mult: 0.0
  }
  convolution_param {
    num_output: 50
    pad: 0
    kernel_size: 1
    stride: 1
    weight_filler {
      type: "gaussian"
      std: 0.00999999977648
    }
    bias_filler {
      type: "constant"
      value: 0.0
    }
  }
}
layer {
  name: "rpn_bbox_pred"
  type: "Convolution"
  bottom: "rpn_conv1"
  top: "rpn_bbox_pred"
  param {
    lr_mult: 0.0
    decay_mult: 0.0
  }
  param {
    lr_mult: 0.0
    decay_mult: 0.0
  }
  convolution_param {
    num_output: 100
    pad: 0
    kernel_size: 1
    stride: 1
    weight_filler {
      type: "gaussian"
      std: 0.00999999977648
    }
    bias_filler {
      type: "constant"
      value: 0.0
    }
  }
}
layer {
  name: "rpn_silence"
  type: "Silence"
  bottom: "rpn_bbox_pred"
  bottom: "rpn_cls_score"
}
